models/gnn_rl_agent.pth (torch, 143397 bytes, 8 tensors)

input_layer.weight f4 [128, 5]
0.78285354 0.6257697 0.771664 -0.60194856 0.4368002 -0.31376487 -0.35764658 -0.09099311
0.2712167 -0.25436166 -0.91202766 0.8976955 0.7640857 0.4220357 0.3239464 -0.13249311
0.11299158 -0.13227662 -0.30108604 1.4225143 0.61285496 0.40008527 0.05314183 -0.88556206
0.16256052 -0.45868108 0.82397944 -0.1134673 -0.8327926 -0.5872283 -0.057011552 -0.3505418
-0.5188934 -0.054452408 -0.09819906 -0.45844248 0.816804 -0.2895369 0.29536003 0.32797223
0.27901888 0.05221728 -0.54417276 -1.1100708 -0.33246684 -0.24369004 -0.07322475 -0.1587189
0.3977546 -0.7686333 0.30354777 -0.6811846 0.82807803 0.3276439 0.5101162 1.1211569
-0.3349582 0.33756864 -0.9674947 0.040510297 -0.97652715 0.5798908 -0.5861396 -0.077723734
0.44138563 0.56547904 -0.72626823 -0.15328199 -0.5983361 0.5615368 0.8497714 -0.27808398
0.45540234 -0.37384304 -0.2043431 0.7794228 0.285914 -0.032786574 0.22854663 1.3299543
0.52007586 0.37258267 -0.37911052 -0.3066904 -0.49409178 -0.23770674 -0.4964577 1.187688
0.6492632 -0.3812548 0.83991057 0.63571274 0.56529236 -0.90882325 0.777465 0.12442566
-0.771199 -0.47045434 0.47923544 -0.13902625 -0.27231118 0.15537195 -0.32594982 -0.952665
-0.6539483 -0.029769883 0.122727916 -0.5923442 0.045393962 0.5331286 0.27298802 -0.3976026
-0.58773893 -0.2923186 -0.4845849 0.65260094 -0.9701851 -0.108871676 0.46282545 -0.7058602
0.42163005 0.3367158 -0.22147657 -1.1807969 -0.1328369 0.4810845 0.35687807 0.76357627
-0.6755807 0.044389885 0.75186825 0.07432414 0.90560085 0.41290063 1.0361395 0.55279803
0.53450614 0.94368124 -0.30445763 1.1867449 0.03154901 0.089427195 -0.05446235 -1.1340711
-0.1951409 0.7237856 -0.72613496 0.30048037 0.20544171 -0.5763318 -0.5577121 -0.76437867
-0.33558288 0.74443257 -0.79653335 0.5280565 -0.8216009 0.6359538 0.17114045 -0.21250282
0.8216367 -0.56774837 0.45595503 -0.516669 -0.3044782 -0.7995336 0.58805746 0.039443403
0.25512022 0.27180538 -0.5542067 -0.66601604 0.99542665 0.38363495 -0.23464915 -0.3265335
0.48004925 -0.10300723 -0.58164716 -0.52990544 0.02836543 -0.14870544 -0.30410203 -0.8325804
-0.5155189 0.4252804 0.52829456 0.029388433 -0.29119822 -0.5030003 0.2742424 -0.002088544
-0.44862697 0.26004934 0.5415316 -0.62933284 0.6206192 -0.3920164 0.283887 0.32466087
0.5625377 -0.9327237 0.22462583 -0.26780695 -0.23807041 0.61131483 -0.8560777 0.001124798
-0.19767496 -0.038932327 0.35307232 0.47071666 -0.28101453 -0.85386723 -0.22926073 -0.52226967
-0.57280797 -0.11456009 0.40562668 -0.35956278 -0.95661485 0.5318816 -0.5573913 -0.30104122
0.21430749 0.6304321 -0.13040802 0.4024352 -0.022925114 -0.25180522 -0.6545048 0.0023395906
-0.85886395 0.662159 -0.086203195 -0.8425106 1.0895427 0.6456035 0.34754664 0.33989167
-0.607221 0.12735102 -0.665976 0.74914235 -0.08782 0.19292846 -0.18832944 -0.8315945
0.27268687 -0.3978381 0.62477285 0.35017538 0.941572 -1.0696702 1.3482249 -0.0073274216
00000000: 1769 483f 7132 203f c68b 453f 4d19 1abf
00000010: 47a4 df3e caa5 a0be 741d b7be 985a babd
00000020: eadc 8a3e b13b 82be a57a 69bf 5fcf 653f
00000030: 1f9b 433f 1015 d83e 4ddc a53e 46ac 07be
00000040: 2168 e73d 8673 07be f327 9abe f314 b63f
00000050: 10e4 1c3f fad7 cc3e 3fab 593d 32b4 62bf
00000060: 4476 263e 3fd8 eabe 51f0 523f 8b61 e8bd
00000070: e531 55bf 9854 16bf f284 69bd 377a b3be
00000080: 33d6 04bf 7d09 5fbd 971c c9bd f9b8 eabe
00000090: 111a 513f 2e3e 94be 6e39 973e faeb a73e
000000a0: 90db 8e3e c9e1 553d e84e 0bbf cd16 8ebf
000000b0: 1839 aabe e289 79be dcf6 95bd 3587 22be
000000c0: 7ea6 cb3e 27c5 44bf 9d6a 9b3e 1d62 2ebf
000000d0: ecfc 533f f1c0 a73e fa96 023f 1282 8f3f
000000e0: a47f abbe ccd5 ac3e bcad 77bf 20ee 253d
000000f0: affd 79bf b973 143f 3f0d 16bf 9f2d 9fbd
00000100: 4cfd e13e 3cc3 103f b7ec 39bf f4f5 1cbe
00000110: 8e2c 19bf e0c0 0f3f 9e8a 593f 0661 8ebe
00000120: 7f2a e93e 5b68 bfbe 513f 51be 4188 473f
00000130: 5263 923e 374b 06bd 2108 6a3e f13b aa3f
00000140: b123 053f 28c3 be3e c61a c2be 8606 9dbe
00000150: 99f9 fcbe 6569 73be b42f febe 2906 983f
00000160: 1d36 263f d433 c3be 6104 573f 12be 223f
00000170: 00b7 103f a4a8 68bf f207 473f e1d2 fe3d
00000180: 4c6d 45bf 64df f0be 595e f53e e65c 0ebe
00000190: 5f6c 8bbe d319 1f3e e5e2 a6be dae1 73bf
000001a0: 2869 27bf f8df f3bc c658 fb3d dfa3 17bf
000001b0: 05ef 393d 1e7b 083f 16c5 8b3e 9192 cbbe
000001c0: 0f76 16bf c9aa 95be 831b f8be db10 273f
000001d0: 0d5e 78bf 1df8 debd 75f7 ec3e 41b3 34bf
000001e0: e5df d73e 0366 ac3e c1ca 62be 5a24 97bf
000001f0: 6506 08be b550 f63e b9b8 b63e bc79 433f
00000200: dbf2 2cbf 2bd2 353d 707a 403f 4137 983d
00000210: 75d5 673f b667 d33e 38a0 843f 2c84 0d3f
00000220: 65d5 083f 1895 713f dfe1 9bbe 42e7 973f
00000230: 8939 013d 9b25 b73d ea13 5fbd 3e29 91bf
00000240: 04d3 47be 034a 393f fbe3 39bf 90d8 993e
00000250: 505f 523e 7b8a 13bf 38c6 0ebf 52ae 43bf
00000260: 85d1 abbe 2293 3e3f 9ce9 4bbf b62e 073f
00000270: 7054 52bf decd 223f 713f 2f3e 579a 59be
00000280: c856 523f f557 11bf f072 e93e 6b44 04bf
00000290: 91e4 9bbe 3cae 4cbf ef8a 163f 688f 213d
000002a0: 1e9f 823e 132a 8b3e 7ee0 0dbf 0780 2abf
000002b0: 48d4 7e3f cd6b c43e de47 70be 662f a7be
000002c0: 04c9 f53e 74f5 d2bd d4e6 14bf e2a7 07bf
000002d0: 9e5e e83c 3d46 18be 43b3 9bbe fd23 55bf
000002e0: 0cf9 03bf 5abe d93e 503e 073f 03c0 f03c
000002f0: ef17 95be a1c4 00bf 8069 8c3e f4df 08bb
00000300: 6fb2 e5be 3025 853e d1a1 0a3f f51b 21bf
00000310: e6e0 1e3f 60b6 c8be a359 913e f339 a63e
00000320: 7902 103f fbc6 6ebf 5004 663e fe1d 89be
00000330: bbc8 73be 217f 1c3f e827 5bbf f56d 933a
00000340: 4e6b 4abe 8177 1fbd e5c5 b43e c601 f13e
00000350: 23e1 8fbe 0b97 5abf 53c3 6abe 77b3 05bf
00000360: 8ba3 12bf 7b9e eabd 4dae cf3e 9d18 b8be
00000370: b6e4 74bf 6429 083f 32b1 0ebf 1322 9abe
00000380: 6c73 5b3e 0064 213f ae89 05be fd0b ce3e
00000390: 73cd bbbc 9dec 80be a08d 27bf d153 193b
000003a0: 82de 5bbf 4183 293f 4d8b b0bd c6ae 57bf
000003b0: 2376 8b3f 4546 253f a2f1 b13e 4806 ae3e
000003c0: d672 1bbf 4e68 023e 677d 2abf cbc7 3f3f
000003d0: f9da b3bd 0a8f 453e 6fd9 40be 61e3 54bf
000003e0: 9d9d 8b3e 6fb1 cbbe 1df1 1f3f 304a b33e
000003f0: dd0a 713f f4ea 88bf a292 ac3f de1a f0bb

input_layer.bias f4 [128]
0.13806538 0.62589395 0.62823826 -0.018033307 0.60432816 0.08219186 0.75372654 0.38104677
0.17621651 0.59543663 -0.10696826 -0.19158828 -0.07214415 0.47408065 -0.3696493 0.21719828
0.17399736 0.13430296 0.37942603 0.36166498 0.2309705 0.82271504 0.69872504 -0.06349602
0.2314523 0.12677847 -0.08600741 0.4554964 0.18633597 0.49365783 0.35958233 -0.20390405
0.41914636 0.7456926 0.17742871 -0.23861836 0.64848626 0.8066695 0.6235361 0.26538786
0.44242558 0.35468173 0.47763407 0.6961048 -0.30669928 0.578058 0.072914496 0.42847872
0.32650945 0.44911784 0.25896195 0.55827844 0.22643273 0.7739693 0.5369785 0.24831475
0.74522984 0.30026054 0.554669 0.27125096 0.2552785 0.035048794 0.08445793 1.0096251
0.4422812 0.02729788 -0.042868413 -0.3406647 0.42483017 0.7062038 0.7430404 -0.039671753
-0.29257947 0.3222702 -0.036671206 0.060798537 0.5864103 -0.099254705 0.70200735 0.032686766
0.15995723 0.23483059 0.06720933 0.13719 0.34698194 0.45457485 -0.1561174 -0.3939072
-0.101461835 -0.24487697 0.026148606 0.56744814 0.7103964 0.37773517 0.84235233 0.34039587
-0.12734042 -0.048730683 0.5613721 -0.02101135 0.46905217 0.73882425 0.283218 0.76278824
0.07953666 -0.013749623 0.712606 0.6130482 0.19958231 1.080989 0.68964434 0.31269658
-0.33799687 0.41064057 0.37027687 0.2833973 0.3306874 0.42446283 0.0026056012 0.44569013
0.560615 0.29609117 -0.17169419 -0.43285626 0.1815369 0.14453435 -0.114174254 0.11394471
00000000: 0361 0d3e 963a 203f 39d4 203f 96ba 93bc
00000010: 40b5 1a3f 3554 a83d 39f4 403f 9018 c33e
00000020: 1a72 343e 896e 183f 2d12 dbbd b82f 44be
00000030: 50c0 93bd b3ba f23e ac42 bdbe 3a69 5e3e
00000040: 5d2c 323e b786 093e 2144 c23e 272c b93e
00000050: 8883 6c3e 749d 523f a5df 323f 340a 82bd
00000060: d501 6d3e 37d2 013e a724 b0bd d336 e93e
00000070: dbce 3e3e b8c0 fc3e 2d1b b83e 39cc 50be
00000080: 5a9a d63e b6e5 3e3f dfaf 353e 5f58 74be
00000090: 3203 263f e481 4e3f 10a0 1f3f ebe0 873e
000000a0: 9b85 e23e d898 b53e 748c f43e ed33 323f
000000b0: b007 9dbe 9cfb 133f 3254 953d 9061 db3e
000000c0: 3f2c a73e c6f2 e53e a996 843e 56eb 0e3f
000000d0: fbdd 673e da22 463f 6c77 093f 3946 7e3e
000000e0: 62c7 3e3f c0bb 993e cafe 0d3f 68e1 8a3e
000000f0: ddb3 823e 538f 0f3d 47f8 ac3d 653b 813f
00000100: ae72 e23e ce9f df3c ca96 2fbd 9b6b aebe
00000110: 5783 d93e c6c9 343f e537 3e3f d97e 22bd
00000120: facc 95be 9a00 a53e 8c34 16bd e307 793d
00000130: fc1e 163f 0d46 cbbd c1b6 333f 8fe2 053d
00000140: d4cb 233e 6e77 703e 0ca5 893d 897b 0c3e
00000150: 9ea7 b13e 09be e83e 3ddd 1fbe 34ae c9be
00000160: 39cb cfbd 07c1 7abe 9a35 d63c 4844 113f
00000170: 8adc 353f 8166 c13e 67a4 573f 5e48 ae3e
00000180: 8765 02be d399 47bd 15b6 0f3f ff1f acbc
00000190: 9b27 f03e 9623 3d3f f301 913e 1746 433f
000001a0: 1ee4 a23d 1946 61bc 596d 363f baf0 1c3f
000001b0: 4e5f 4c3e d95d 8a3f 888c 303f c419 a03e
000001c0: ed0d adbe 7b3f d23e ee94 bd3e 7319 913e
000001d0: dc4f a93e 3153 d93e bcc2 2a3b 7f31 e43e
000001e0: 7784 0f3f 4399 973e 9ad0 2fbe 569f ddbe
000001f0: cfe4 393e d000 143e 31d4 e9bd d85b e93d

conv1.bias f4 [128]
0.17106552 0.2048651 0.2408177 0.108898 0.110628694 -0.041836143 0.0571597 0.09460396
0.0692833 -0.19013979 0.08574143 0.079822734 -0.03834734 0.0046727336 0.026737988 0.15924782
0.1548514 -0.006487963 0.26770425 -0.046621684 -0.19088131 0.28755125 0.18404412 0.14884818
-0.16531904 0.08023381 -0.046276838 -0.06347864 -0.05604965 -0.10901412 -0.020354794 0.10097238
-0.121240914 0.18008527 0.14984295 0.08966802 0.0144251445 -0.19416748 0.05143412 0.1681557
0.023905039 0.14014408 0.05915944 0.107435614 -0.029888002 0.1257733 0.15540715 0.19076408
-0.13951351 0.14825216 0.12849675 0.060620848 -0.05206449 -0.10345275 0.12884715 0.15989096
0.04195362 0.1457913 0.1275371 -0.004392159 -0.12809934 0.118000194 0.026474506 0.0
0.1425855 -0.14310135 0.06212401 -0.029280264 0.04334663 -0.017976748 0.017613633 0.1479014
0.08566936 0.075060084 0.015926981 -0.06292647 -0.14827144 0.2869627 0.102607265 0.2119071
0.019137934 -0.078141615 -0.15109429 -0.12725282 0.050080694 0.24975488 0.16259204 0.060930844
0.07387466 0.14625609 -0.1949111 0.21360639 -0.11312542 0.0931941 0.13447282 0.076671444
0.109538175 -0.1336825 0.020474128 0.0062182164 0.034172826 0.079881094 0.17753817 0.07019762
0.20371102 0.14407963 0.07685295 -0.07804225 -0.15102635 0.0021713495 -0.05825913 0.011051084
0.08127101 0.033735313 -0.14084184 0.105268784 0.17242573 0.0 -0.03090659 0.19586852
-0.025140248 0.2700007 0.041568942 0.018253036 -0.005910868 -0.04764426 0.21325539 0.07225646
00000000: cd2b 2f3e 28c8 513e ea98 763e ea05 df3d
00000010: 4c91 e23d 605c 2bbd 4a20 6a3d b9bf c13d
00000020: 67e4 8d3d 01b4 42be 3499 af3d 1a7a a33d
00000030: 1a12 1dbd bb1d 993b a009 db3c dc11 233e
00000040: 5e91 1e3e fa98 d4bb 8810 893e 61f6 3ebd
00000050: 6476 43be eb39 933e 1076 3c3e a86b 183e
00000060: 6549 29be a051 a43d c88c 3dbd 1701 82bd
00000070: 5194 65bd cc42 dfbd 19bf a6bc 9bca ce3d
00000080: 284d f8bd 4668 383e 6e70 193e dea3 b73d
00000090: 7157 6c3c d7d3 46be 95ac 523d 0231 2c3e
000000a0: 80d4 c33c ee81 0f3e 2b51 723d 3407 dc3d
000000b0: afd7 f4bc b7ca 003e 0d23 1f3e a957 433e
000000c0: a1dc 0ebe 6acf 173e a794 033e 914d 783d
000000d0: 9341 55bd 09df d3bd 82f0 033e 75ba 233e
000000e0: 8fd7 2b3d 514a 153e 1699 023e 1aec 8fbb
000000f0: 792c 03be 16aa f13d 10e1 d83c 0000 0000
00000100: ef01 123e 2989 12be bf75 7e3d 2add efbc
00000110: 3c8c 313d f943 93bc 774a 903c 7773 173e
00000120: 6b73 af3d 1ab9 993d 4d79 823c 98df 80bd
00000130: 78d4 17be c6ec 923e c223 d23d 2dfe 583e
00000140: 28c7 9c3c b608 a0bd 76b8 1abe 904e 02be
00000150: 6a21 4d3d bebf 7f3e 877e 263e 9f92 793d
00000160: 994b 973d 28c4 153e c796 47be a2bb 5a3e
00000170: 4dae e7bd 8cdc be3d 3eb3 093e eb05 9d3d
00000180: 8d55 e03d 11e4 08be 5cb9 a73c 2ec2 cb3b
00000190: cef8 0b3d b398 a33d 91cc 353e c5c3 8f3d
000001a0: 9f99 503e 9c89 133e 1465 9d3d 9dd4 9fbd
000001b0: a7a6 1abe 334d 0e3b 20a1 6ebd 9b0f 353c
000001c0: 6a71 a63d 0a2e 0a3d d838 10be 2997 d73d
000001d0: 5f90 303e 0000 0000 d12f fdbc c291 483e
000001e0: ecf2 cdbc 883d 8a3e 3244 2a3d 6487 953c
000001f0: f4af c1bb a126 43bd 9f5f 5a3e 32fb 933d

conv1.lin.weight f4 [128, 128]
-0.13741663 0.14492546 0.35702425 0.006769607 0.13928978 0.083845235 0.15574129 0.4444813
0.05166291 0.29478246 -0.16414174 0.048642397 0.12102793 -0.008702034 -0.046048876 0.23415151
0.1739535 -0.19673961 0.07237737 0.0892025 -0.07296415 0.37277928 0.20408432 -0.09102268
0.09612301 0.21013448 -0.0071771974 0.20414971 0.0680606 0.02411225 0.09464759 -0.06451961
0.127882 0.3217441 -0.21803643 -0.22155552 0.17983942 0.10569407 0.13111754 0.5096996
-0.09711825 -0.020538723 0.29713148 0.15136762 0.04015627 0.13926978 0.14528655 0.12598792
0.2431648 0.2540054 -0.004430003 0.06960804 0.18366201 -0.04350399 -0.063690186 0.12885487
0.43721128 0.5651195 -0.059873607 0.24740477 0.2336849 0.11652423 -0.108197294 0.34129626
0.22139837 0.09089174 0.1814337 -0.4270093 0.24519679 0.15563029 0.16477954 -0.2651878
-0.21201365 0.055298332 0.028920209 0.17025167 0.015598997 0.11135014 0.3858221 -0.20123976
-0.02706461 0.078010745 0.007716115 -0.015627151 0.25011823 -0.059054952 -0.07820399 -0.49098718
-0.015213142 -0.029654216 0.04147916 0.31154963 0.097637735 0.0975423 0.3147414 -0.11323107
-0.1767718 -0.27864856 0.036740564 0.0022585152 -0.005716205 0.37682328 0.24465635 0.31287345
0.4280256 -0.29110554 0.3320664 0.13807452 -0.0068696085 0.280694 0.20455202 0.13989544
-0.18182166 -0.13499989 -0.22320758 0.14274961 0.2647648 -0.05652925 0.20491754 0.013745087
0.2193771 0.17025065 -0.11868572 -0.337267 -0.29562116 0.050538883 0.06458735 0.08974466
-0.055362884 0.18605289 0.5529529 0.038762607 0.3942661 0.12579422 0.16038267 0.3366489
0.1512602 0.040996432 -0.17978638 0.034515303 0.11735126 0.08442991 -0.10598869 0.038956817
0.15567133 -0.26528233 -0.031552944 -0.09897385 0.16046007 0.5127765 0.13558598 0.05105726
0.37276015 0.17354776 -0.26047218 0.07828519 0.23754355 0.06313626 -0.1375745 -0.20647289
0.16482787 0.30617306 -0.14553784 -0.31386086 0.13610777 0.35048497 0.13838676 0.13108811
0.10090815 0.00483214 0.33894315 0.16136765 -0.07810092 0.19873379 0.32737312 0.35035813
0.35445428 -0.025581263 0.023713551 -0.037988164 -0.030932322 0.10043619 0.04533522 0.25175434
0.32045028 0.3443976 0.083384305 0.1657319 0.25183272 0.1768562 -0.17150544 0.59305507
0.12614655 0.13405694 0.18112001 -0.4577169 0.10399284 0.27419573 0.17292736 0.04681513
-0.31954837 -0.028947458 0.010863731 0.054837197 0.02426396 0.21640238 0.32560888 -0.06210005
-0.08087129 0.04843819 0.11708057 -0.049276795 0.35945672 0.038973738 -0.2931936 -0.4102683
-0.15139668 -0.20962201 -0.07350049 0.16205516 0.40426868 -0.12501621 0.3732037 0.053285226
-0.3675426 -0.091513224 -0.16711639 -0.051390458 0.23835966 0.41395438 0.38694113 0.22810686
0.37454274 -0.24711074 0.24338044 0.07246791 0.008916171 0.38276342 0.2189951 -0.0150445625
-0.25660235 0.1582594 -0.087588504 0.05134544 0.17915146 0.09494201 0.05791713 0.09105076
0.13796096 -0.06980112 0.07245852 -0.4607349 -0.21422803 -0.14693387 0.11713204 -0.08253924
00000000: f2b6 0cbe 5767 143e e2cb b63e 94d3 dd3b
00000010: fba1 0e3e 0db7 ab3d a57a 1f3e 0e93 e33e
00000020: 7d9c 533d baed 963e c614 28be 403d 473d
00000030: 7edd f73d fa92 0ebc bf9d 3cbd 6ac5 6f3e
00000040: de20 323e 1c76 49be 963a 943d cdaf b63d
00000050: 3a6e 95bd eddc be3e 7bfb 503e 196a babd
00000060: 24dc c43d 7e2d 573e b22e ebbb 9f0c 513e
00000070: 5b63 8b3d 0e87 c53c 98d6 c13d db22 84bd
00000080: 80f3 023e a5bb a43e f144 5fbe 73df 62be
00000090: d327 383e 2276 d83d ad43 063e ac7b 023f
000000a0: efe5 c6bd d340 a8bc 9e21 983e 1d00 1b3e
000000b0: e77a 243d bd9c 0e3e ffc5 143e fa02 013e
000000c0: 3100 793e ff0c 823e 8f29 91bb a98e 8e3d
000000d0: e511 3c3e 3d31 32bd 0070 82bd 88f2 033e
000000e0: 28da df3e acab 103f 073e 75bd ad57 7d3e
000000f0: 184b 6f3e 41a4 ee3d 8b96 ddbd 62be ae3e
00000100: 41b6 623e 7325 ba3d c1c9 393e f7a0 dabe
00000110: de14 7b3e 8c5d 1f3e f8bb 283e b2c6 87be
00000120: 1b1a 59be 8180 623d 13ea ec3c 7456 2e3e
00000130: ef92 7f3c 8b0b e43d 798a c53e cc11 4ebe
00000140: 9ab6 ddbc 19c4 9f3d 77d7 fc3b 8304 80bc
00000150: 7f0f 803e 9be3 71bd 6a29 a0bd ac62 fbbe
00000160: 8b40 79bc 66ed f2bc 0de6 293d 6f83 9f3e
00000170: 4bf6 c73d 42c4 c73d c925 a13e b1e5 e7bd
00000180: ab03 35be 06ab 8ebe 467d 163d 9903 143b
00000190: 014f bbbb fbee c03e 3287 7a3e f330 a03e
000001a0: 2c26 db3e c90b 95be 9b04 aa3e 6863 0d3e
000001b0: 741a e1bb 20b7 8f3e 1676 513e c040 0f3e
000001c0: 752f 3abe 693d 0abe 8790 64be f42c 123e
000001d0: 408f 873e 378b 67bd e7d5 513e 1333 613c
000001e0: 64a4 603e 3056 2e3e 8011 f3bd 43ae acbe
000001f0: a85b 97be dc01 4f3d 5f46 843d 0ccc b73d
00000200: 31c4 62bd a684 3e3e 528e 0d3f 8ac5 1e3d
00000210: 3fdd c93e 33d0 003e 5b3b 243e 3f5d ac3e
00000220: f4e3 1a3e e0eb 273d ec19 38be eb5f 0d3d
00000230: db55 f03d 97e9 ac3d 9910 d9bd 2f91 1f3d
00000240: 4e68 1f3e 16d3 87be a93d 01bd cdb2 cabd
00000250: a54f 243e 5245 033f 0dd7 0a3e 6b21 513d
00000260: 6bda be3e 81b6 313e 9c5c 85be fc53 a03d
00000270: 9e3e 733e 954d 813d 54e0 0cbe a16d 53be
00000280: a3c8 283e b7c2 9c3e df07 15be 5fb2 a0be
00000290: d65f 0b3e c472 b33e 42b5 0d3e f63b 063e
000002a0: efa8 ce3d ee56 9e3b f589 ad3e 903d 253e
000002b0: 60f3 9fbd df80 4b3e 739d a73e 2462 b33e
000002c0: 087b b53e cc8f d1bc ec42 c23c 7a99 1bbd
000002d0: c865 fdbc 7db1 cd3d 6cb1 393d f2e5 803e
000002e0: 0f12 a43e e254 b03e 64c5 aa3d a0b5 293e
000002f0: 38f0 803e cb19 353e 1f9f 2fbe 75d2 173f
00000300: 902c 013e 3946 093e 8677 393e df59 eabe
00000310: 33fa d43d 6263 8c3e df13 313e 39c1 3f3d
00000320: d89b a3be 3823 edbc cafd 313c f89c 603d
00000330: 36c5 c63c 9698 5d3e 35b6 a63e 9f5c 7ebd
00000340: d99f a5bd 2067 463d f0c7 ef3d 77d6 49bd
00000350: b60a b83e eda2 1f3d 791d 96be b00e d2be
00000360: bb07 1bbe 27a7 56be 6d87 96bd caf1 253e
00000370: 4efc ce3e 4004 00be 8e14 bf3e 9c41 5a3d
00000380: 8b2e bcbe 496b bbbd 8f20 2bbe cd7e 52bd
00000390: 8e14 743e d4f1 d33e 261d c63e d894 693e
000003a0: 11c4 bf3e 990a 7dbe b938 793e 0e6a 943d
000003b0: 2215 123c 91f9 c33e 4040 603e 787d 76bc
000003c0: 6261 83be c10e 223e 9a61 b3bd 994f 523d
000003d0: 7b73 373e f570 c23d 833a 6d3d d278 ba3d
000003e0: a345 0d3e e4f3 8ebd 2265 943d 72e5 ebbe
000003f0: 985e 5bbe d575 16be ece2 ef3d 550a a9bd

conv2.bias f4 [128]
0.21906678 -0.930966 0.1472235 1.0252306 1.447764 -1.0031326 1.962258 -1.1883509
0.26395988 -0.38933843 0.6402069 0.0 -0.97131294 -0.5156973 0.14627334 -0.64579195
-1.4700466 0.8537459 0.75892013 -0.22183633 -1.3890868 -0.30689403 -1.2212421 -0.6869046
0.412229 0.5320865 0.5422854 0.08402707 -0.15967077 -1.5299991 0.9095355 0.42064628
1.3223672 0.77784437 -1.4219486 0.30272314 1.7316456 1.0166948 1.5535605 1.8065606
-0.852094 -0.42059422 -0.13352956 -1.7595317 -0.7733445 -0.44938168 2.1500382 -0.39812323
0.0 -0.5621964 -0.25137684 0.7275336 1.4027996 -0.011357289 -0.7865974 -1.3717495
1.2388331 -0.46935707 1.4901122 -0.7921239 1.7272165 -1.4440385 1.0593644 -1.1525189
0.58632624 0.6873183 2.17297 1.5602059 1.8803372 1.7114309 -1.4567126 -0.78254676
-1.6378553 1.4876978 0.0 1.2647041 -1.1173433 0.956485 -1.2515427 1.5535262
-0.331406 0.971971 0.0 -1.1442127 1.6465607 1.7889235 0.33915594 1.0775049
1.260476 -0.47072992 2.3083189 -0.9262354 1.3445731 0.6809537 1.2173833 -1.4524051
-0.6340764 0.8166221 -0.023589892 -1.6399736 1.6395835 0.0 -1.2335579 0.8381699
2.0116339 1.940997 0.57496417 1.4556599 1.1301147 -0.684642 0.5330137 1.4289771
0.95795 -1.3631625 1.2021834 -0.5632689 1.5358201 0.62730324 0.7808986 1.2910974
1.1737641 1.0615373 0.67605036 0.25825113 0.97476715 -0.070404135 -0.42240387 1.7647105
00000000: 0b53 603e ca53 6ebf c2c1 163e c23a 833f
00000010: 5550 b93f a666 80bf 452b fb3f e21b 98bf
00000020: c025 873e 5e57 c7be 99e4 233f 0000 0000
00000030: f7a7 78bf bd04 04bf aec8 153e 9f52 25bf
00000040: 7d2a bcbf 178f 5a3f 9748 423f 1029 63be
00000050: 99cd b1bf 3721 9dbe a951 9cbf fbd8 2fbf
00000060: ae0f d33e d236 083f 37d3 0a3f 6216 ac3d
00000070: bc80 23be 03d7 c3bf 52d7 683f f35e d73e
00000080: 5443 a93f cf20 473f 6902 b6bf 87fe 9a3e
00000090: 90a6 dd3f 0e23 823f 12db c63f 613d e73f
000000a0: d522 5abf 2058 d7be f9bb 08be 5638 e1bf
000000b0: e8f9 45bf 5b15 e6be 3a9a 0940 cfd6 cbbe
000000c0: 0000 0000 1aec 0fbf 77b4 80be a43f 3a3f
000000d0: f08e b33f ec13 3abc 725e 49bf 7d95 afbf
000000e0: 1592 9e3f 924f f0be ffbb be3f a2c8 4abf
000000f0: 6e15 dd3f 41d6 b8bf 4199 873f bd85 93bf
00000100: 7a19 163f 18f4 2f3f f111 0b40 d4b4 c73f
00000110: e4ae f03f 2b10 db3f 8f75 babf fc54 48bf
00000120: 3ea5 d1bf e26c be3f 0000 0000 d3e1 a13f
00000130: 1b05 8fbf 33dc 743f 8d32 a0bf f2d9 c63f
00000140: 0cae a9be 17d3 783f 0000 0000 9075 92bf
00000150: 80c2 d23f 72fb e43f d9a5 ad3e aeeb 893f
00000160: 4757 a13f 8303 f1be 7fbb 1340 c31d 6dbf
00000170: f91a ac3f fb52 2e3f 37d3 9b3f 69e8 b9bf
00000180: d552 22bf 250e 513f 973f c1bc a8ea d1bf
00000190: dfdd d13f 0000 0000 3ae5 9dbf 4d92 563f
000001a0: 9cbe 0040 9772 f83f da30 133f 1053 ba3f
000001b0: 99a7 903f b344 2fbf 9673 083f b9e8 b63f
000001c0: 363c 753f 1c7c aebf 25e1 993f 6432 10bf
000001d0: c195 c43f f296 203f f8e8 473f ae42 a53f
000001e0: e73d 963f 74e0 873f a311 2d3f 7e39 843e
000001f0: 578a 793f 0b30 90bd 5245 d8be 09e2 e13f

conv2.lin.weight f4 [128, 128]
0.04392611 0.05599995 0.01583605 -0.13876942 0.08173663 -0.2439362 0.15200932 0.22501199
0.14129137 0.22809117 0.13947044 0.06366825 0.22193813 0.2901855 -0.037407894 0.014312127
-0.15909258 0.13138026 -0.1759178 -0.092294514 -0.010323434 -0.07610858 0.10627069 -0.2833458
0.1634717 0.2824225 -0.12106824 -0.13805133 -0.11589209 -0.010969421 0.33517852 0.24830034
0.15881187 0.030598408 -0.28711 0.33893287 0.005917416 0.031252965 0.259235 -0.10929708
-0.065759994 -0.23527002 -0.33404458 0.015848652 -0.11342478 0.12909141 0.082327135 0.15997757
0.27246633 -0.05613133 -0.2255388 0.37038976 0.2568791 0.14990169 -0.53001386 0.05169508
-0.10370517 -0.0373346 0.056323327 -0.41770035 0.2744594 0.25824445 0.050409943 -0.06829007
-0.19601107 -0.08003734 0.027861116 -0.30070266 -0.0060694353 0.30897573 -0.061016895 -0.11524406
0.066107035 0.21159117 0.2861045 -0.1706797 0.08824899 -0.39164203 -0.12008281 -0.15626794
0.2622813 0.014661567 0.25093436 0.05881392 -0.27758625 -0.12878183 -0.09828712 -0.039520577
0.25747707 -0.044475075 0.18819016 -0.21016447 -0.12687896 0.20557155 -0.34811985 -0.017041758
0.022436695 0.14392516 -0.042471707 0.3448031 0.20180058 0.13456842 0.3587749 0.08779121
0.23345125 0.03181292 -0.13410813 0.36521545 -0.051354963 0.040505838 0.18177278 0.009270435
0.044106014 0.073908895 -0.05173146 0.2307066 0.15916865 -0.14484681 -0.0036670007 -0.2129622
0.14412394 0.24269319 0.09907942 0.37896508 0.25087145 0.12223356 0.38433397 0.1389501
-0.0015626529 -0.06928342 -0.07230777 -0.1170682 0.085964866 -0.23929581 0.007806173 -0.04459662
0.11376149 0.21555343 0.11875897 -0.19365706 0.072016135 0.14412469 -0.15686387 0.13456994
-0.06464166 0.042241983 -0.28409994 0.15337093 0.067416474 -0.11454537 -0.13150364 -0.013974174
0.10819772 0.027197966 -0.14245132 0.14223422 0.07741796 0.19515891 0.07416752 -0.0002114246
0.121753946 -0.11810759 -0.20668185 0.19184577 0.19138531 0.18876244 0.13747261 0.08229731
0.2527352 -0.2200994 0.07284743 -0.0641287 0.15441461 0.018787771 -0.13135573 0.017424688
0.26193765 -0.06861612 0.04854894 -0.044263005 0.11004091 0.020676384 -0.20043139 0.13449916
0.15240422 0.076856576 0.06448392 -0.03033513 -0.042090327 0.031966176 0.04589971 0.025379732
0.035124324 -0.013592691 0.13927728 -0.40273726 -0.14501032 0.07188598 -0.09814712 -0.004528299
-0.2599845 0.072865635 0.24950169 0.02724217 0.4333448 0.14900549 -0.050899204 0.061291248
-0.031781666 0.08519085 0.18995334 -0.08595773 0.14826891 0.07462353 -0.027579732 -0.03857439
0.003536493 0.03738805 0.15229414 -0.07582748 -0.2220324 0.119406536 -0.085984886 0.12530819
-0.04403985 0.23067947 0.1975789 -0.015459786 0.26877213 -0.13235256 0.0009214608 0.0817196
0.26456633 0.10738711 0.054408554 -0.0865355 0.0014361393 -0.05439213 -0.061022393 0.0066457656
-0.15047956 -0.060362786 0.1004233 0.17651863 -0.18911532 -0.08190402 0.09794272 -0.1760627
0.05872172 0.28418273 -0.08067758 -0.13523467 0.16414104 0.13367824 0.09880438 -0.016726173
00000000: ddeb 333d 3460 653d 9bba 813c 9219 0ebe
00000010: 8965 a73d 69ca 79be 55a8 1b3e 8b69 663e
00000020: afae 103e bb90 693e 57d1 0e3e 8064 823d
00000030: c043 633e 3293 943e 0539 19bd 697d 6a3c
00000040: 2ae9 22be 8c88 063e cc23 34be e804 bdbd
00000050: 9f23 29bc d1de 9bbd 73a4 d93d b312 91be
00000060: 2065 273e af99 903e a0f2 f7bd 545d 0dbe
00000070: d558 edbd 16b9 33bc 859c ab3e 7242 7e3e
00000080: 949f 223e 83a9 fa3c 1500 93be 9c88 ad3e
00000090: e2e6 c13b 1c03 003d 73ba 843e 26d7 dfbd
000000a0: 2dad 86bd a0ea 70be e407 abbe 08d5 813c
000000b0: 404b e8bd 8a30 043e 219b a83d 29d1 233e
000000c0: b580 8b3e f7e9 65bd a5f3 66be baa3 bd3e
000000d0: a885 833e d47f 193e fdae 07bf 38be 533d
000000e0: 6063 d4bd 2aec 18bd 4ab3 663d d2dc d5be
000000f0: f185 8c3e 9e38 843e a87a 4e3d aadb 8bbd
00000100: 20b7 48be 9eea a3bd ff3c e43c b3f5 99be
00000110: 1de2 c6bb 1132 9e3e daec 79bd 1405 ecbd
00000120: 2063 873d 5bab 583e 4a7c 923e a9c6 2ebe
00000130: e3bb b43d 4e85 c8be faed f5bd b404 20be
00000140: bc49 863e 1237 703c 787a 803e dde6 703d
00000150: c91f 8ebe 62df 03be c24a c9bd 54e0 21bd
00000160: 09d4 833e 7f2b 36bd ecb4 403e 5b35 57be
00000170: 8fec 01be 5981 523e c43c b2be 289b 8bbc
00000180: 29cd b73c 1e61 133e d0f6 2dbd 088a b03e
00000190: d0a4 4e3e 4ecc 093e 58b1 b73e e1cb b33d
000001a0: d80d 6f3e 444e 023d a453 09be 85fd ba3e
000001b0: 9559 52bd 73e9 253d a522 3a3e 06e3 173c
000001c0: 82a8 343d 8c5d 973d 5ee4 53bd 5a3e 6c3e
000001d0: 1bfd 223e b952 14be 1052 70bb c312 5abe
000001e0: 3a95 133e 9084 783e 27ea ca3d b607 c23e
000001f0: 3972 803e 9755 fa3d 6cc7 c43e ef48 0e3e
00000200: eed1 ccba 77e4 8dbd 1916 94bd 74c1 efbd
00000210: 590e b03d f609 75be edca ff3b f2aa 36bd
00000220: c9fb e83d 0aba 5c3e e737 f33d 094e 46be
00000230: 327d 933d 6c95 133e eca0 20be b4cc 093e
00000240: d962 84bd ee05 2d3d 8c75 91be 450d 1d3e
00000250: a611 8a3d c396 eabd e4a8 06be eff3 64bc
00000260: c496 dd3d 45ce de3c c2de 11be d9a5 113e
00000270: 4f8d 9e3d bdd7 473e 24e5 973d dcb1 5db9
00000280: 225a f93d 64e2 f1bd 68a4 53be 3873 443e
00000290: 83fa 433e f14a 413e 9fc5 0c3e 7e8b a83d
000002a0: 8266 813e bd61 61be 0931 953d e855 83bd
000002b0: dd1e 1e3e d0e8 993c 1e82 06be 38be 8e3c
000002c0: b11c 863e 9c86 8cbd 41db 463d 204d 35bd
000002d0: 215d e13d 8561 a93c e33d 4dbe 26ba 093e
000002e0: da0f 1c3e fb66 9d3d 2510 843d 6181 f8bc
000002f0: e866 2cbd f7ee 023d 5601 3c3d 28e9 cf3c
00000300: 86de 0f3d e1b3 5ebc b49e 0e3e 9433 cebe
00000310: 967d 14be f538 933d 5b01 c9bd 2062 94bb
00000320: b01c 85be 943a 953d 5f7d 7f3e f92a df3c
00000330: 5fdf dd3e e594 183e af7b 50bd 880c 7b3d
00000340: 7e2d 02bd 8a78 ae3d 2183 423e 9b0a b0bd
00000350: ced3 173e 39d4 983d e4ee e1bc 2e00 1ebd
00000360: 82c4 673b 3624 193d fff2 1b3e 704b 9bbd
00000370: 765c 63be 6a8b f43d d818 b0bd ca50 003e
00000380: 2163 34bd 3d37 6c3e 2052 4a3e 0b4b 7dbc
00000390: 809c 893e 6e87 07be 308e 713a 9b5c a73d
000003a0: 3d75 873e c6ed db3d 81db 5e3d 8639 b1bd
000003b0: d73c bc3a 48ca 5ebd 9ef2 79bd b9c4 d93b
000003c0: 5017 1abe f83e 77bd bbaa cd3d 4dc1 343e
000003d0: 72a7 41be 4bbd a7bd 3196 c83d c849 34be
000003e0: 3086 703d 6680 913e 493a a5bd f57a 0abe
000003f0: 9714 283e f3e2 083e f359 ca3d 5405 89bc

fc.weight f4 [8, 128]
0.16609363 0.078123644 0.028429156 -0.1399298 -0.11273396 0.018997435 -0.17264798 0.052290276
0.041312966 0.089617394 -0.20588803 0.017909281 0.06405381 0.1138699 0.095952265 0.0054259226
0.26213694 -0.037995636 -0.0043921582 0.103748746 0.2534362 0.09346871 0.08557541 -0.0118506765
0.14103468 -0.69151735 -0.17003146 0.04025052 0.10795174 0.043911844 -0.10310322 0.022022948
-0.20345648 -0.07226186 0.13148148 0.018448582 -0.2616854 -0.051597297 -0.113440625 -0.2019007
0.13323912 0.21377885 0.05738227 0.23754805 -0.17870067 0.0296067 -0.10661795 0.31171325
-0.057623077 0.07771571 -0.12151669 -0.075376816 -0.030196115 0.005719905 -0.01850755 0.095750235
-0.22501919 0.022652136 -0.05975729 0.08418398 -0.06163134 0.09675073 -0.025340246 0.04534111
-0.07109331 -0.031795595 -0.12170462 -0.048156004 -0.09208288 -0.10733725 0.039770138 0.17140877
0.23291405 -0.15152285 0.053302538 -0.09997521 0.14989772 -0.016371664 0.08417956 -0.42299005
0.009483466 -0.7600575 -0.008363442 0.18978155 -0.18074411 -0.13243742 -0.04064107 -0.077867456
-0.174431 0.07530282 -0.36326277 0.1868145 0.012923737 -0.007421298 -0.33233365 0.19186497
-0.016698007 -1.2309313 0.22916712 0.07026989 -0.021523878 -0.034054685 0.055691484 -0.43762264
-0.13944033 -0.19470076 -0.04552463 -0.06774089 -0.10810645 0.044185992 0.013286761 -0.5827197
-0.43348408 0.24523243 -0.14408705 -0.1307711 -0.78873783 -0.09689777 -0.18295985 -0.09472189
-0.09560674 -0.10229873 -0.10008314 -0.19182427 0.019253371 0.059117485 0.061343584 -0.13455425
-0.029568994 0.014720756 0.034430895 0.038254872 -0.09011294 0.025066216 -0.101657115 0.1496199
0.0077846083 0.09444552 -0.05734016 0.07700614 0.1285192 -0.017929235 0.04909291 0.038145207
0.10458791 -0.23421152 -0.14521775 -0.049378462 -0.018665787 0.0075387494 0.040192105 0.0698447
0.07626014 -0.93470657 -0.0141166 -0.022023305 0.07558233 0.0935035 -0.09316765 -0.021524688
-0.18531285 0.060730964 -0.02776765 -0.069661155 -0.20231053 -0.011948633 -0.13196297 -0.122280926
0.046254292 0.06881621 -0.037746117 0.17808343 0.0978722 0.12154923 -0.13269347 0.15803066
-0.0039945305 0.047416724 -0.032347593 -0.25238034 -0.032873824 -0.16393217 -0.048356388 -0.0022325905
-0.13390328 -0.07497957 -0.011094859 0.039612304 -0.10735688 0.12189703 -0.1016804 0.05038226
-0.00037041 -0.036151633 -0.12065857 -0.0713151 -0.019773249 -0.038035996 0.096662864 0.098609895
0.16749622 0.009537335 -0.067169935 0.0064266813 -0.07496975 -0.10452098 0.18888126 -0.07637233
-0.08829779 -0.1415572 0.086634435 0.16069697 -0.22848907 -0.34316894 -0.121475175 -0.12619862
-0.12324408 -0.004041617 -0.2738244 0.18925893 -0.11544443 -0.025774136 -0.18619291 0.018448872
0.05849425 -1.0721782 0.037028685 0.09849854 -0.058808133 -0.078769326 0.111675985 -0.34533802
-0.12130594 -0.08697299 -0.025421077 -0.06414605 -0.088433854 0.05339115 -0.083949536 -0.3805636
0.037497714 0.28377372 -0.10356891 0.037092052 -0.78304505 -0.59069914 -0.0021410955 -0.15310247
-0.110634886 0.017296068 -0.099359214 -0.078344755 -0.086668506 0.055543683 -0.010610325 -0.110820666
00000000: 7314 2a3e 4aff 9f3d 43e4 e83c c249 0fbe
00000010: 10e1 e6bd 82a0 9b3c a2ca 30be 542e 563d
00000020: c937 293d 5389 b73d 50d4 52be 7cb6 923c
00000030: a52e 833d 9f34 e93d 9f82 c43d f0cb b13b
00000040: d036 863e 50a1 1bbd 18ec 8fbb 397a d43d
00000050: 64c2 813e 866c bf3d 2942 af3d 5729 42bc
00000060: 656b 103e 4807 31bf ba1c 2ebe bbdd 243d
00000070: cd15 dd3d e8dc 333d c827 d3bd 7869 b43c
00000080: e556 50be 07fe 93bd 15a3 063e 7b21 973c
00000090: a1fb 85be b057 53bd 8f53 e8bd 0fbf 4ebe
000000a0: d66f 083e d8e8 5a3e ac09 6b3d cc3f 733e
000000b0: 4ffd 36be c089 f23c 835a dabd e198 9f3e
000000c0: 2d06 6cbd 6a29 9f3d bedd f8bd 295f 9abd
000000d0: d85d f7bc 0a6e bb3b 259d 97bc b318 c43d
000000e0: 6e6b 66be f990 b93c 0fc4 74bd a768 ac3d
000000f0: 2571 7cbd 3f25 c63d 5996 cfbc 9ab7 393d
00000100: 5f99 91bd 193c 02bd 4640 f9bd 3b3f 45bd
00000110: f395 bcbd a2d3 dbbd 03e6 223d c885 2f3e
00000120: 0581 6e3e ce28 1bbe c353 5a3d cebf ccbd
00000130: ca7e 193e de1d 86bc 5566 ac3d 2792 d8be
00000140: 8a60 1b3c 2193 42bf d106 09bc 1856 423e
00000150: fc14 39be ad9d 07be 4077 26bd f978 9fbd
00000160: 0a9e 32be 5d38 9a3d 94fd b9be 4d4c 3f3e
00000170: 15be 533c 5c2e f3bb a327 aabe 4078 443e
00000180: 42ca 88bc 288f 9dbf c9aa 6a3e a9e9 8f3d
00000190: d852 b0bc ed7c 0bbd c11c 643d 1310 e0be
000001a0: 72c9 0ebe a35f 47be 0978 3abd bcbb 8abd
000001b0: ea66 ddbd 5ffc 343d b7b0 593c 1e2d 15bf
000001c0: a0f1 ddbe 361e 7b3e 8e8b 13be dce8 05be
000001d0: b9ea 49bf 5772 c6bd d459 3bbe 8dfd c1bd
000001e0: 77cd c3bd ff81 d1bd 64f8 ccbd 956d 44be
000001f0: 3fb9 9d3c 2d25 723d 6943 7b3d 97c8 09be
00000200: ad3a f2bc 532f 713c 6907 0d3d 24b1 1c3d
00000210: 228d b8bd aa57 cd3c 9b31 d0bd f635 193e
00000220: 0716 ff3b a76c c13d 84dd 6abd 65b5 9d3d
00000230: 8a9a 033e 55e0 92bc a615 493d 263e 1c3d
00000240: 3032 d63d 25d5 6fbe f6b3 14be 1241 4abd
00000250: fee8 98bc 9d07 f73b 7aa0 243d bd0a 8f3d
00000260: 472e 9c3d ee48 6fbf 5049 67bc 386a b4bc
00000270: e9ca 9a3d c37e bf3d aece bebd 8b54 b0bc
00000280: a7c2 3dbe 08c1 783d fc78 e3bc 82aa 8ebd
00000290: 7e2a 4fbe 33c4 43bc 4d21 07be 6c6e fabd
000002a0: 2475 3d3d 83ef 8c3d ac9b 1abd 815b 363e
000002b0: 3871 c83d cdee f83d cce0 07be cad2 213e
000002c0: 8de4 82bb 0a38 423d e97e 04bd ff37 81be
000002d0: b4a6 06bd d6dd 27be 5911 46bd a750 12bb
000002e0: f11d 09be e48e 99bd 36c7 35bc 8340 223d
000002f0: eddd dbbd 26a5 f93d d03d d0bd a15d 4e3d
00000300: 9733 c2b9 bc13 14bd d71b f7bd a70d 92bd
00000310: 82fb a1bc a2cb 1bbd 2ef7 c53d fcf3 c93d
00000320: 2184 2b3e 7b42 1c3c 6490 89bd e996 d23b
00000330: be89 99bd 180f d6bd 176a 413e 1969 9cbd
00000340: 79d5 b4bd 5ff4 10be 656d b13d bf8d 243e
00000350: 0af9 69be d7b3 afbe fac7 f8bd 363a 01be
00000360: 6467 fcbd 8a6f 84bb b632 8cbe 18cd 413e
00000370: 216e ecbd 4824 d3bc 5ba9 3ebe 1722 973c
00000380: ab97 6f3d 233d 89bf 64ab 173d 9ab9 c93d
00000390: cce0 70bd d051 a1bd 61b6 e43d 25d0 b0be
000003a0: 406f f8bd e51e b2bd dd3f d0bc 015f 83bd
000003b0: cf1c b5bd aeb0 5a3d bced abbd 3bd9 c2be
000003c0: 3497 193d ca4a 913e f01b d4bd d6ed 173d
000003d0: a475 48bf 0f38 17bf 9f51 0cbb e5c6 1cbe
000003e0: 8b94 e2bd 7cb0 8d3c d87c cbbd 3773 a0bd
000003f0: 427f b1bd c681 633d eed6 2dbc f2f5 e2bd

fc.bias f4 [8]
-1.4354919 -1.1723136 -0.8977788 -0.44399142 -0.31140918 -0.7944159 -0.23962379 -0.51373607
00000000: 33be b7bf 5f0e 96bf d5d4 65bf d852 e3be
00000010: 0671 9fbe d75e 4bbf f05f 75be 3584 03bf
