models/gnn_imitator.pth (torch, 379819 bytes, 8 tensors)

input_layer.weight f4 [128, 5]
000000 18 f6 ee 3e 17 1f 1c 3f 44 16 08 3f d9 dc 9f be
       0.4667213 0.6098494 0.53158975 -0.3122318
000010 1b 7f 89 be 03 cd 89 be 5f 06 a3 be 94 64 e3 bc
       -0.26854786 -0.26914224 -0.31840798 -0.02775792
000020 aa 68 5f 3e 94 61 63 be c6 8a 3b bf e8 da 1d 3f
       0.2181727 -0.22205192 -0.73258626 0.6166215
000030 a7 f3 27 3f fb 38 c8 3e b8 f9 38 3e 80 55 91 be
       0.6560616 0.39105973 0.1806401 -0.28385544
000040 ba 65 5a be 12 a0 00 bf f0 7e fa bc 33 5f 4a 3f
       -0.21327868 -0.5024425 -0.030578107 0.7905151
000050 0a 99 04 3f 12 71 b3 3e f5 5d a5 3c c8 f7 00 bf
       0.5179602 0.35047203 0.020186404 -0.50378084
000060 d2 56 93 3d 8e a8 dd be 6c 17 28 3f 26 89 13 3d
       0.07194294 -0.4329266 0.6566074 0.036019467
000070 c3 17 03 bf e6 7c bb be 9a d2 55 bd e5 28 c3 be
       -0.5120813 -0.36618727 -0.0522028 -0.38117138
000080 67 08 b8 be e1 ff 2f bd ff 2c cc 3c ae ce eb be
       -0.3594391 -0.042968635 0.0249238 -0.46056122
000090 cb f0 15 3f 06 bc 8d be 5c 0a 6b 3e 94 a7 1e be
       0.58570546 -0.27682513 0.2295317 -0.15493613
0000a0 2d 11 6f 3e 9f 45 21 3d 98 fd 6d be 6e a9 17 bf
       0.23346396 0.039373036 -0.2324127 -0.59242904
0000b0 d7 52 ce be c3 57 a9 be 45 91 fd bc c6 a8 a1 bc
       -0.40297577 -0.3307477 -0.030953059 -0.019733798
0000c0 28 b0 9c 3e aa 19 06 bf e3 08 81 3e 94 83 13 bf
       0.30603147 -0.5238291 0.25202093 -0.5762265
0000d0 9f ef b4 3e b8 fc 59 3e f5 a2 ef 3e 85 c5 25 3f
       0.35339066 0.21287811 0.46804014 0.64754516
0000e0 ba 4a c3 be e7 2e 30 3e 84 ae 12 bf 12 13 dd be
       -0.3814295 0.17205392 -0.5729754 -0.43178612
0000f0 fb 62 36 bf d5 96 c9 3e a2 6d a0 be 82 5d 2b be
       -0.7124478 0.39372888 -0.31333643 -0.16734889
000100 23 81 02 3e ac 70 e6 3e e6 29 2d bf f6 c9 63 be
       0.12744574 0.45007837 -0.67642057 -0.2224501
000110 d1 ad c6 be 4a 3a da 3e 41 61 3a 3f 09 64 92 be
       -0.38804486 0.42622596 0.7280465 -0.28591946
000120 61 f2 12 3e 03 f5 8a be 98 07 cc be 2d 9e bd 3e
       0.14350273 -0.27140054 -0.39849544 0.3703474
000130 f0 e0 98 3e 0c 33 b0 be d5 e4 ef 3e dd dd 56 3f
       0.29859114 -0.34413946 0.46854272 0.83932287
000140 87 4c f0 3e 31 9b a6 3e d0 a8 a7 be ae ea 0d 3d
       0.46933386 0.32540277 -0.3274598 0.034647636
000150 45 f5 bd be 2c 65 80 be 88 7f af be 10 1d 38 3f
       -0.37101188 -0.25077188 -0.34276986 0.71919346
000160 d0 53 ac 3e 4d 5e 4e be a4 01 f4 3e 5a 60 23 3f
       0.33657694 -0.2015316 0.47657502 0.63818896
000170 2a 7c ad 3e c3 dd 18 bf e1 d6 61 3e 18 ae 6b 3e
       0.33883792 -0.5971338 0.22054626 0.2301563
000180 71 47 1d bf a4 1b be be 56 74 87 3e 27 24 08 3e
       -0.61437136 -0.37130463 0.26455945 0.13295041
000190 28 92 c6 be 5a dd 96 3e df 24 af bc b0 40 15 bf
       -0.38783383 0.29465753 -0.021379886 -0.5830183
0001a0 e7 c5 77 be 12 24 c5 bd 74 47 e0 bc 10 80 0d bf
       -0.24196588 -0.096260205 -0.027377822 -0.5527353
0001b0 fc 02 41 3e 26 cc c3 3e 8b dc 3a 3e 10 41 ea be
       0.18848795 0.3824169 0.18248193 -0.45752764
0001c0 98 94 d1 be ad 62 17 be 8b df ad be 66 bb 3e 3f
       -0.4093368 -0.14783736 -0.33959612 0.745047
0001d0 37 da 23 bf ed cf b3 3d 39 e7 ad 3d 63 58 19 bf
       -0.64004844 0.08779893 0.08491368 -0.5990049
0001e0 58 3a b4 3e c9 00 94 3e f7 39 83 be bb 2f 1e bf
       0.35200763 0.2890685 -0.2563016 -0.6179158
0001f0 b2 da ce bd 8c f2 8b 3e 1e 7c 9e 3e 1d 3a 28 3f
       -0.101003066 0.27333486 0.3095407 0.65713674
000200 5e d6 a7 be d1 3c 00 be 78 07 f8 3e d7 83 1e 3e
       -0.32780737 -0.125232 0.48443198 0.1547998
000210 3d 98 16 3f d0 44 04 3f c8 6f 3d 3f 7a 3c 66 3e
       0.5882605 0.516675 0.7399869 0.22484007
000220 cf 3b e4 3e 11 ab 2f 3f 2f b2 85 bc 5e dc 50 3f
       0.4457688 0.686204 -0.016320316 0.81586254
000230 ef 34 a0 bd d9 7f 8a 3d ba 9a 8f bd 32 07 08 bf
       -0.07822596 0.06762666 -0.070119336 -0.5313598
000240 0a 03 f5 bd 38 70 32 3f 98 60 08 bf cd 68 43 3e
       -0.1196347 0.6970248 -0.5327239 0.19082947
000250 d1 5e 51 3e 7f 36 cf be e1 1a d4 be 9c 28 14 bf
       0.20446326 -0.40471265 -0.41426757 -0.57874465
000260 ea 89 3f be fb 9e 77 3e fd b1 ba be 04 4c 0b 3f
       -0.18704954 0.2418174 -0.3646392 0.54412866
000270 31 e5 17 bf cb 55 7b 3e 40 df 76 be 53 08 cc be
       -0.59334093 0.24544446 -0.241086 -0.398501
000280 93 4e 22 3f 92 52 0b bf 35 51 85 3e bd b3 bc be
       0.63401145 -0.5442287 0.2603852 -0.3685588
000290 76 58 00 bf e5 62 5d bf 14 07 94 3e 44 8a ff 3d
       -0.5013498 -0.86479026 0.2891165 0.12477544
0002a0 b9 01 f0 3e cb fa 36 3e f4 3d 17 bf 6a b6 db be
       0.46876314 0.17869107 -0.5907891 -0.42912608
0002b0 20 7d 26 3f da 5e 12 3e 55 81 95 bd 9f 76 e2 be
       0.65034676 0.14293995 -0.07300059 -0.44231126
0002c0 59 70 a9 3e 95 90 ac 3c 3c 6a d1 be a6 75 d3 be
       0.33093527 0.021065036 -0.40901363 -0.41300696
0002d0 02 85 62 3c 59 a0 27 be 72 91 f7 bd 29 f5 10 bf
       0.013825657 -0.16369762 -0.12088288 -0.56624085
0002e0 96 83 dd be 7d fb d3 3e 97 02 f9 3e 24 e0 da 3d
       -0.43264455 0.41402808 0.48634788 0.10687283
0002f0 17 16 4d bd 0b dc f3 be 23 e3 8a 3e 93 8c a6 bd
       -0.050069895 -0.47628817 0.27126417 -0.08132281
000300 bb 0b c0 be 49 83 aa 3e 22 1b c9 3e 61 ef 0f bf
       -0.3750895 0.33303288 0.39278513 -0.5622464
000310 12 36 b9 3e 79 5d b2 be 80 6d 8c 3e 72 eb f7 3d
       0.36174065 -0.3483694 0.27427292 0.121054545
000320 eb da e7 3e 5f 1e 4a bf ef 50 c1 3d 60 d0 49 be
       0.4528421 -0.7895259 0.09439265 -0.19708395
000330 f4 01 12 be 27 a4 0f 3f c5 a9 2a bf 34 36 c7 bd
       -0.14258558 0.5610985 -0.666653 -0.09727135
000340 a4 2b 29 be 0c 8f ee 3c 25 68 ac 3e e5 88 c6 3e
       -0.16520554 0.029120944 0.33673206 0.38776317
000350 c8 ce 6a be 7c d7 bf be 1e 31 8b be ce 78 eb be
       -0.22930443 -0.3746909 -0.2718591 -0.45990604
000360 a5 e4 02 bf f9 b7 de 3c a1 ca b4 3e 1c 8d 51 be
       -0.51130134 0.027187334 0.35310844 -0.20463985
000370 3d 7e 40 bf 47 87 e4 3e 0a 17 be be 47 4c 87 be
       -0.75192624 0.44634458 -0.37126952 -0.26425382
000380 9c b6 37 3e 60 a5 0e 3f 0f 17 2a be e7 ac 79 3e
       0.17940754 0.5572109 -0.16610359 0.24382363
000390 f2 86 88 3c 7c c3 66 be 65 06 f0 be c5 35 fa 3b
       0.01666591 -0.22535509 -0.4687988 0.0076358044
0003a0 a9 cd f4 be 92 14 b4 3e a0 a4 a4 be 72 0c 22 bf
       -0.47813156 0.35171944 -0.3215685 -0.6330024
0003b0 fc 03 39 3f 6f e7 f0 3e e2 97 88 3e 25 b9 6f 3e
       0.72271705 0.4705157 0.26678377 0.23410471
0003c0 5c 87 22 bf 9b 4d 15 3e 62 51 77 be 8a 0e 29 3f
       -0.6348779 0.14580385 -0.24152139 0.6603781
0003d0 d1 58 39 be 21 0a f5 3d cd 39 49 be 4a d3 e1 be
       -0.18100287 0.119648226 -0.19650955 -0.44106513
0003e0 3d 29 73 3e 4d 8d 19 be 93 ca 23 3e 1a bf e1 3e
       0.237462 -0.14995308 0.15995245 0.4409111
0003f0 f2 ff 2f 3f 40 4d 32 bf d8 a2 1f 3f 97 a5 a2 be
       0.68749917 -0.69649124 0.62357855 -0.3176696

input_layer.bias f4 [128]
000000 f1 8c 67 bd 8b 08 c2 3e 5e 3c a8 3e cb 21 7d bd
       -0.056530897 0.37897143 0.32858557 -0.061799806
000010 f7 51 e2 3e 4e 8f 00 bc 2d d1 04 3f 9f 3e 5b 3d
       0.4420316 -0.0078466665 0.51881677 0.053526517
000020 72 b4 f9 bc 92 b1 4d 3e f9 a6 09 3e 0b c0 4a be
       -0.03048155 0.20087269 0.13442601 -0.19799821
000030 83 68 37 be 3d a6 ce 3e 65 f9 43 be c6 0b 73 3d
       -0.17910962 0.40361205 -0.19138105 0.0593374
000040 8a 9d 8e bd 01 59 86 3e ce 13 08 3e 46 88 ad 3e
       -0.06963642 0.2623978 0.13288805 0.3389303
000050 2c 33 aa bc f7 51 0b 3f 1b 80 f3 3e 8e 47 05 be
       -0.020776354 0.54421943 0.47558674 -0.13015577
000060 ef a4 a1 3c 8f a6 95 bd 56 9f ef bd ac 15 d3 3e
       0.019731967 -0.07307159 -0.11700313 0.41227472
000070 42 91 83 bd d6 fa e0 3e e1 14 05 3e 0b 56 0b be
       -0.0642419 0.43941373 0.12996246 -0.13607042
000080 a6 f3 97 3e d9 33 cb 3e b7 a4 80 3e 4d 96 72 be
       0.29678077 0.39687994 0.25125667 -0.23690148
000090 93 12 ca 3e 11 e7 18 3f 3e 01 d8 3e d9 bc 1f 3d
       0.39467296 0.5972758 0.42188448 0.03899846
0000a0 de 04 bf 3e a0 52 7b 3e dc f1 8e 3e c6 9c f7 3e
       0.373084 0.24543238 0.279189 0.48361796
0000b0 06 6a 99 be 31 1b e5 3e 8a a0 ae be 12 42 1d 3e
       -0.29963702 0.44747308 -0.34106857 0.15357235
0000c0 8a b9 ea bd 1c 5f 31 3e 61 3e 52 bd 42 4a 6f 3e
       -0.1146117 0.17321438 -0.05132902 0.23368171
0000d0 19 96 e9 bc b4 bf 49 3e c8 1e 08 3f fd 91 56 bd
       -0.028513955 0.19702035 0.5317197 -0.05238532
0000e0 09 2c f4 3e ff 0f 0b 3d 52 de f5 3e f8 60 88 bc
       0.47689846 0.033950802 0.4802118 -0.0166478
0000f0 37 87 91 bd 4d e1 08 be 09 90 ab 3e 33 bc 14 3f
       -0.07105868 -0.13367195 0.33508328 0.5809967
000100 bb e3 80 3d dd 54 78 be d8 63 9b be 3d 2f 56 be
       0.06293436 -0.24251123 -0.30349612 -0.20916457
000110 d2 29 35 3e 85 6c 10 3f 76 5b f6 3e b6 5d 01 be
       0.17691734 0.5641559 0.48116654 -0.12633404
000120 a8 b3 4a be 4d b8 84 be 43 4f 8f 3c 3e 6f 9c be
       -0.19795096 -0.2592186 0.01749385 -0.3055362
000130 9e cb 18 3e 26 fc 99 be 1e c3 db 3e fd 46 70 3e
       0.14921424 -0.30075186 0.429223 0.2346458
000140 9f 89 72 3e 5d fa af bc c9 7c 49 be 02 2f 19 be
       0.23685311 -0.021481687 -0.19676508 -0.14959338
000150 d9 a7 06 3e a0 31 e7 3e 71 e2 89 bd 68 39 76 be
       0.13149966 0.45155048 -0.067326434 -0.24045336
000160 86 13 9f be 88 8e 9e bd 5a e8 dd bd 26 ce 92 3e
       -0.31069583 -0.077420294 -0.10835333 0.28672904
000170 66 71 d4 3e 63 c2 73 3d d9 0e cb 3e ee 26 87 3e
       0.41492766 0.059511553 0.39659765 0.26396888
000180 fa 3b 6d 3d a6 6d 16 3e 54 1b 1b 3f f9 53 87 be
       0.057918526 0.14690265 0.60588574 -0.26431254
000190 6c 30 a7 3d d6 a4 a7 3e 7d df 35 3e 8c 4e eb 3e
       0.081635326 0.32742947 0.17761035 0.45958364
0001a0 2a 9a af bd e4 33 9c 3d 2f 2c 02 3f 59 79 cb 3e
       -0.08574326 0.07627085 0.5084867 0.39741018
0001b0 22 65 5e 3e 6d 88 14 3f 0f 25 d7 3e a4 9c 89 3d
       0.21718267 0.5802067 0.4202046 0.0671933
0001c0 b7 b7 68 be 00 2e ce 3e 3f fe 0f 3f 4b 9a cc bd
       -0.22726332 0.4026947 0.56247324 -0.099903665
0001d0 f8 fa 16 3d 5d 42 dd 3e 06 ab 4d be 74 21 01 3f
       0.036860436 0.43214694 -0.20084772 0.5044167
0001e0 d3 6e a2 3e 4b 58 8b 3d 62 93 e2 bd c1 5b 69 be
       0.31725177 0.0680395 -0.11063267 -0.22788908
0001f0 84 9d ed 3e 5a d9 b2 3e c4 ce a6 be d9 45 57 be
       0.46409237 0.3493145 -0.32579625 -0.21022739

conv1.bias f4 [128]
000000 b3 13 c0 3d 4c 79 b6 3d 66 52 02 3e a9 70 e6 3d
       0.09378757 0.08909854 0.12726745 0.11251957
000010 48 8f dc 3d e8 2e a6 3d c0 e2 4b 3c af 89 11 3d
       0.10769516 0.081144154 0.012444198 0.035531696
000020 0d 65 07 3e 7f a7 94 3d 50 8e 33 3e 29 ef 19 3d
       0.13222142 0.0725851 0.17534757 0.037581597
000030 f2 44 e8 3d 27 76 5f bd 81 9d c6 3d 94 dc eb 3d
       0.11341275 -0.05455604 0.0969801 0.11516681
000040 e1 63 dc 3d 87 16 be 3d 9f 07 9a 3d a8 3a 92 3c
       0.10761238 0.092816405 0.07520985 0.017850235
000050 b7 76 15 3d 90 8e a3 3d 6e 0c 96 3d 68 c6 c5 3d
       0.03649017 0.07986176 0.073265895 0.096569836
000060 43 ea 89 3d 79 4a fb 3d 3d da db 3d 8e 2a 9d 3d
       0.06734135 0.12270064 0.10734985 0.07674132
000070 7a 86 ea 3d e0 43 96 3d 49 bf d1 3d 06 71 c2 3d
       0.114514306 0.07337165 0.10241563 0.09494214
000080 07 00 58 3d b1 ce 98 3d 60 a3 8d 3d 42 f6 e7 3c
       0.0527344 0.07461298 0.06915927 0.028315667
000090 cd 66 96 3d a7 16 be 3d 8b 72 ff 3d c0 5d 62 3d
       0.073438264 0.09281664 0.12473019 0.05526519
0000a0 42 e4 82 3c 11 7c af 3d 9b 56 93 3d ca f1 d7 3d
       0.015977982 0.08568586 0.07194253 0.105441645
0000b0 9e b2 c6 3d 86 c6 e4 3d e9 8f 83 3c ce 64 cd 3d
       0.09702037 0.11170678 0.016059833 0.100289926
0000c0 66 ab a5 3d ce fc ba 3d 5b ac bc 3d ed 8c cc 3d
       0.08089332 0.0913025 0.09212562 0.09987817
0000d0 f9 60 a8 3d 6a a2 c8 3d 5c c3 80 bc b3 1c e5 3d
       0.08221621 0.09796603 -0.015718155 0.111871146
0000e0 95 41 df 3d ca 65 b7 3d aa be 92 3d ad f9 d7 3d
       0.10901181 0.089549616 0.071652725 0.10545669
0000f0 7b c8 8c 3d e8 93 9f 3d 27 98 a1 3d ec 87 e3 ba
       0.06874176 0.07791883 0.07890349 -0.0017359233
000100 53 ed a1 3d c8 7d c0 3c 9f a7 f5 3c 35 e8 05 3d
       0.07906594 0.023497477 0.029987155 0.032692153
000110 37 d2 a2 3d 09 91 01 3d 92 85 98 3d 21 1b 9f 3d
       0.079502515 0.031632457 0.074473515 0.07768846
000120 46 f5 a3 3d a1 f2 83 3d 50 e1 b8 3d 1c cb 7e 3d
       0.080057666 0.06442762 0.0902735 0.06220542
000130 17 24 9a 3d 5c ac 45 bc 59 eb e9 3d 03 99 bd 3d
       0.07526415 -0.012065019 0.11421842 0.092577
000140 1b 4e c4 3d 77 05 59 3d 1b 8b 7b 3d b1 35 be 3d
       0.0958521 0.052983727 0.06141196 0.092875846
000150 2b 4e 07 3e 6c 9c dd 3d d1 64 91 3d f4 78 cc 3d
       0.13213412 0.10820851 0.07099307 0.099840075
000160 48 96 e9 3d 4d e2 9e 3d b7 7e cd 3d 76 cb 9a 3d
       0.11405617 0.07758007 0.100339346 0.07558338
000170 f0 b8 bf 3c 64 87 d3 3d 7f f9 aa 3d 3a e8 22 3e
       0.023403615 0.10328558 0.08348369 0.159089
000180 11 ed 2d 3d 4e 2f 1c 3d bb 80 10 3e 69 eb fe 3c
       0.042462412 0.03813105 0.14111607 0.031118112
000190 01 11 0a 3e be 1b dd 3d 2a 68 97 3d ab 36 dd 3d
       0.13483049 0.10796307 0.073929146 0.10801443
0001a0 29 5a 87 3d 21 fe be 3d ac 70 08 3e fd a7 27 3d
       0.066089936 0.09325815 0.13324231 0.04093169
0001b0 fb 80 80 3d 9f 6e c2 3d 68 5c 0d 3e 03 c1 2c 3d
       0.06274601 0.094937555 0.13804781 0.042176258
0001c0 6e d6 e9 3d 0e 4c 05 3e 55 ac 10 3e 85 ce 6d 3d
       0.11417852 0.13017294 0.1412824 0.05805828
0001d0 da 12 45 3d d0 93 18 bc 04 62 c8 3d f8 7f d2 3d
       0.04811368 -0.009312585 0.0978432 0.10278314
0001e0 72 5b 9b 3d 0e b2 fd 3d ca 69 a9 3d 84 b4 35 3d
       0.07585801 0.12387477 0.08272131 0.044361606
0001f0 51 12 bb 3d f8 c0 46 3d ff 3f f8 3d df e6 ce 3d
       0.09134353 0.048523873 0.12121581 0.10102629

conv1.lin.weight f4 [128, 128]
000000 0b 9c 2c be 68 5e 8e 3d 0f 28 5e 3e a5 59 90 bd
       -0.168564 0.069516 0.21694969 -0.07048348
000010 8e 0d a0 bb e8 04 31 3e 3d 79 9d 3d 0f c6 43 3e
       -0.0048844283 0.17287028 0.0768914 0.19118522
000020 09 b3 00 bc b0 e3 86 3e ad 99 ab bd 9a 95 f2 3d
       -0.007855185 0.26345587 -0.08378921 0.118449405
000030 64 92 19 3e f3 bb db bd 2f 81 38 bd 50 cf 31 3d
       0.1499725 -0.10729208 -0.045045074 0.0434106
000040 a3 65 f8 3d a5 23 28 3e 01 32 80 bb e2 69 8e 3d
       0.12128761 0.16419847 -0.003912211 0.06953789
000050 27 48 d3 bc 9e 07 ca 3d 60 99 05 3e 8d 4b 8e bd
       -0.02579124 0.09864734 0.13046789 -0.06948004
000060 96 01 c4 bc 10 db da 3d 88 00 08 bd 8d 88 45 3e
       -0.023926537 0.10686314 -0.03320363 0.19290371
000070 b6 d4 92 bd 87 9f 13 bd fe 3d 36 3e 9d 86 20 3d
       -0.07169478 -0.03604081 0.17797086 0.039190877
000080 70 50 12 3e 50 f5 21 3e 43 7e ce 3d 1f a3 96 b8
       0.14288497 0.15816236 0.10082676 -7.182941e-05
000090 cf 5e 8c 3d 12 51 35 bd e0 e7 86 bd 11 aa 96 3e
       0.06854021 -0.044266768 -0.065871954 0.29426625
0000a0 78 ff f8 bd e6 78 96 bd ae 2c 12 3e f4 01 fc 3d
       -0.12158102 -0.07347278 0.14274856 0.1230506
0000b0 59 3f 89 3e dc 95 6d 3d 80 bd 81 3d 98 a4 a3 3c
       0.26806143 0.058004245 0.063349724 0.019975945
0000c0 2c 1b 1a 3d c8 db 44 3e 7b 96 b9 bc e7 2c ef 3d
       0.03762357 0.19224465 -0.022654762 0.11678486
0000d0 a3 4a 1b 3e 8d 21 2f bd 32 cc 06 be ba 47 12 3d
       0.1516519 -0.042756606 -0.13163832 0.035712935
0000e0 e8 82 4a 3e f7 f3 6c 3e fd dc fb bd 02 67 00 3e
       0.197765 0.2313994 -0.122980095 0.12539294
0000f0 b8 70 5c 3d 4f 05 86 3d 09 2f 7f bd f6 b8 8c 3d
       0.053818434 0.06543981 -0.062300716 0.06871216
000100 e8 5c f8 3d 70 9e bc 3d c9 9b 3b 3e 48 df 98 be
       0.121270955 0.09209907 0.18321146 -0.2985785
000110 7f 2b 7d 3e f2 e1 9d 3d ad 0c b6 3d ca 87 9a bd
       0.24723624 0.07709111 0.088891365 -0.07545431
000120 8f 6a a2 bd 0f 4a 18 3e 03 18 85 3d 5f 9d 07 3e
       -0.07930481 0.14872001 0.064987205 0.13243626
000130 fa 2e 50 bc fa e5 da 3c e2 1c 34 3e 1b 61 df bd
       -0.012706513 0.02672099 0.17589143 -0.10907193
000140 4a d9 7c bc 49 aa e6 3c ba b6 69 bc ed 94 a2 bd
       -0.015432665 0.02815737 -0.014264757 -0.079385616
000150 cd 86 dc 3d 0e b2 25 be 02 31 d5 bd 05 9d 9b be
       0.10767899 -0.16181204 -0.10409738 -0.30393234
000160 f3 69 2b 3e 9d ea 73 bc 08 e1 95 3d fc 98 cf 3d
       0.16739635 -0.014887479 0.07318312 0.10136601
000170 b6 61 81 bd 83 e7 2a 3e 65 7a 2e 3e 44 a7 23 be
       -0.06317465 0.16689877 0.17038877 -0.15981776
000180 fd 8d 8c bd 79 ff 1e be a5 c4 ef bc cd f3 24 3d
       -0.068630196 -0.15527143 -0.029268572 0.04027157
000190 68 37 0f bd 32 9f 9d 3e f8 df 74 bc 22 88 f3 3d
       -0.03496495 0.3078552 -0.014945976 0.118912
0001a0 46 02 4b 3e ce 11 31 be b3 1c 09 3e 21 71 b4 3c
       0.19825086 -0.17291948 0.13389854 0.0220266
0001b0 a2 f2 5c bd a7 f8 ff 3d db 90 05 3e fd 76 20 3d
       -0.05394233 0.124985985 0.13043539 0.039175976
0001c0 d2 c0 07 bd 1d 3d d0 bd 00 83 71 bd 6c 37 ff 3d
       -0.033142872 -0.101679064 -0.058962822 0.12461743
0001d0 f4 08 47 3e 98 71 a4 bd 6d 80 27 3e b7 ab 5e bd
       0.19437009 -0.08029479 0.16357584 -0.05436298
0001e0 0c 6a 57 3e dd 4d 47 3e d8 8f 49 bd 04 1b 83 bd
       0.21036547 0.19463296 -0.049209446 -0.06401637
0001f0 e9 f1 8d be 4d 37 f0 3d f4 c5 12 3e be b4 3a 3e
       -0.27723625 0.11729298 0.14333326 0.1823301
000200 d4 2d 93 bd a6 bb d1 3d 5c e5 cb 3e b1 dc f6 bd
       -0.071864754 0.10240869 0.39823425 -0.12053812
000210 f9 10 53 3e 67 15 4d 3e 5d 9c 43 3d fc 9b 1f 3e
       0.20611943 0.20027696 0.04775654 0.15586847
000220 b0 d3 87 3d 4b 83 ed 3c 7d 93 d6 bd 35 84 e5 3d
       0.06632173 0.02899327 -0.1047735 0.11206857
000230 7a d9 65 3e 56 67 94 ba 9f 99 5d bd eb da 0a be
       0.22446242 -0.00113223 -0.054101583 -0.13560073
000240 0d 8f b2 3d 57 f7 5d 3e c7 a5 b9 bd f2 08 f4 bd
       0.08718691 0.21676384 -0.09064823 -0.11915769
000250 e3 cb 2b 3e ec 10 1d 3e 33 f7 8d 3d fe af d3 3d
       0.16776995 0.15338486 0.06931915 0.10336302
000260 bf c4 46 3e c1 8d 20 3d 8d 94 6c be 32 1b 9e 3d
       0.1941099 0.039197687 -0.23103543 0.07720031
000270 d5 40 b2 3c f5 54 c6 3c 70 e2 da bc 6d 93 71 bd
       0.02175943 0.024210433 -0.026719302 -0.058978487
000280 e5 92 1e 3e 08 f0 2b 3e 26 41 93 3e 17 51 b4 bd
       0.15485723 0.16790783 0.28760642 -0.08804529
000290 25 19 02 bc cd 20 2a 3e 5a 9f cc bd e3 86 6a bc
       -0.007940565 0.16614075 -0.099913314 -0.014314386
0002a0 f7 3b ac 3d e1 f0 b6 bc 40 19 0a 3e b9 b4 12 3e
       0.08409875 -0.022331657 0.13486195 0.14326753
0002b0 9d 27 5b 3e 81 9f be 3d 4f fb 4e 3e 94 d0 73 3e
       0.2140183 0.09307767 0.20213054 0.23810035
0002c0 5c 1f ef 3d 4a 42 b8 bd 35 00 06 3d f8 78 5c bc
       0.11675903 -0.08997019 0.03271504 -0.013456576
0002d0 2c 13 7e bd 27 e5 71 3d f5 76 44 bd 86 3f ba 3d
       -0.062030002 0.059056427 -0.04796501 0.090941474
0002e0 cc d9 5e 3d 0c 8c f7 3c db 87 40 3d 72 73 8f bc
       0.054406926 0.030218147 0.047004562 -0.017511103
0002f0 e8 9a 1b bc cd 5d de 3d a1 d3 f1 bd f6 95 74 3e
       -0.009497382 0.10857735 -0.11807943 0.2388533
000300 65 07 9c bc f6 d0 04 3e e8 fc 39 3e 2f 41 b2 be
       -0.019046495 0.12970337 0.18162882 -0.34815356
000310 ef ce f6 3d 4d 78 43 3e db 75 92 3d a1 92 91 3e
       0.12051188 0.1908886 0.071513854 0.2843218
000320 24 91 47 be be c9 da 3d f1 47 8e 3d 71 64 b2 bc
       -0.1948896 0.106830105 0.069473155 -0.02177641
000330 be 9e 3a bb f0 ef 56 3d a3 15 1c 3e 42 71 d3 3c
       -0.0028475965 0.052474916 0.15242629 0.025810841
000340 a5 21 60 bd a8 f1 6c bc 71 8a aa 3d 38 0e c7 bd
       -0.054719586 -0.014461912 0.08327187 -0.09719509
000350 62 af eb 3d 7b 36 44 bd a3 c3 8e be 53 0e 47 be
       0.11508061 -0.04790352 -0.27883634 -0.19439058
000360 a8 fe fb 3c 23 2d 1e be 6d 66 80 bc 85 3d 07 bd
       0.030761078 -0.15446906 -0.01567384 -0.033017654
000370 f9 bb 41 3e dd d8 30 bd d6 0c 31 3e ef 09 81 3c
       0.18919362 -0.043175567 0.17290053 0.015751807
000380 fa 89 88 be f1 2e a3 3c ba b9 5a be 0b a5 1d bd
       -0.26667768 0.019919844 -0.21359912 -0.038487475
000390 6e bd 27 3e 9b 1e b8 3e be b2 be 3d cf 41 88 bc
       0.16380855 0.3596085 0.09311436 -0.016632942
0003a0 dd 2c 15 3e 21 3c 1b be de ff 05 bd b2 38 7c bd
       0.14567895 -0.15159656 -0.032714717 -0.061577506
0003b0 b2 0c 21 bb 2e ae 41 3e 08 88 d1 3d 23 fc 22 be
       -0.0024574217 0.189141 0.10231024 -0.15916495
0003c0 78 f7 04 be e9 f1 21 3e b6 a3 17 3e d4 b8 8b 3d
       -0.12985027 0.15814938 0.14808545 0.068223625
0003d0 3f 05 3e 3c 39 22 b9 3d 0b 53 23 bc 98 9a 45 3b
       0.01159793 0.090397306 -0.009968529 0.003015196
0003e0 4c 39 1d 3e c0 70 4b bd bc 54 19 3e 42 4d 1b be
       0.15353888 -0.049668074 0.1497373 -0.1516619
0003f0 c0 54 3d be 12 46 9c bd 59 6b 21 3e c8 74 b1 3c
       -0.18489361 -0.07630552 0.15763606 0.021662131

conv2.bias f4 [128]
000000 ef e8 47 3d 8b 6a 6c 3b aa 9f 41 bb 5a 4c ee 3b
       0.048806127 0.0036074247 -0.002954463 0.0072722854
000010 bc 0c 2a 3d 0e 87 fe 3c 02 fc 20 3d d9 fc 84 3c
       0.04151605 0.031070258 0.039302833 0.016233848
000020 d5 41 c9 3c ea a6 a9 3b 28 c2 bf 3d 96 54 af bb
       0.024567524 0.0051773684 0.09363204 -0.0053506596
000030 32 b3 46 3d a2 0c 91 3d a0 7b c4 3a 5d d6 77 bb
       0.048510738 0.07082488 0.0014990456 -0.003781698
000040 57 76 56 3c b0 7a 46 bc 29 e8 9e 3c c4 fb 4a 3d
       0.013089738 -0.012114212 0.019397812 0.04955651
000050 1e 17 f6 3b 8b c1 38 3c 64 a2 03 bc 85 bf 72 3d
       0.00751008 0.011276613 -0.008034322 0.05926468
000060 bb e2 60 3a f0 95 9c bc ce 78 5c 3b 86 f5 59 bc
       0.00085787073 -0.019114465 0.003364134 -0.013303166
000070 67 3e 2b bc 3d 0d 2c 3d be 53 f5 3b 28 77 e0 3d
       -0.01045189 0.042004813 0.0074867895 0.10960227
000080 af 5e 86 3b 4e f5 e2 38 4f 1a 49 3d 70 a2 92 3d
       0.0041006426 0.00010822211 0.049097355 0.07159889
000090 54 61 51 3d 44 b4 60 3d 38 e6 22 3d 0f 29 57 3d
       0.05111821 0.054859415 0.039770335 0.05252939
0000a0 63 6d b8 bb 82 17 0f 3c 4e ca 32 3d a9 a1 92 3d
       -0.0056282743 0.008733632 0.043649964 0.071597405
0000b0 5e 91 8e 3d 8f 4b 01 bb 94 e5 b6 3d 00 ab 4a 3d
       0.0696132 -0.0019728874 0.08930507 0.049479485
0000c0 00 00 00 00 ec c9 94 3d 57 15 5f 3d 92 08 3f 3c
       0.0 0.07265076 0.05446371 0.011659758
0000d0 cf d7 ba 3d 85 dc 26 bd dd 4f b4 3c 57 b3 7f 3c
       0.091231935 -0.040737648 0.022010738 0.015606723
0000e0 dd 62 f6 3c f1 cf 7b 3d ed e6 31 3d 89 35 ca bb
       0.030076439 0.061477605 0.04343312 -0.0061709327
0000f0 d8 53 ce 3c 69 2b b2 3c f8 6c cd 3d a6 82 3b 3c
       0.025186464 0.021749215 0.1003055 0.011444723
000100 4f 9f a2 3d b4 a0 56 bc e2 55 6c 3c eb 48 1d bc
       0.07940542 -0.013099838 0.014424773 -0.0095999045
000110 0e 7d b6 3d 13 43 8f 3c 48 bc 44 3d aa cc 9c 3c
       0.08910571 0.017488038 0.04803112 0.01914056
000120 80 9a ea 3d f5 8e 64 3d 00 00 00 00 fd 50 5d 3c
       0.1145525 0.055800397 0.0 0.013508079
000130 1b ff 5e 38 19 12 70 3d c6 00 2a 3c 7d c4 47 3b
       5.316651e-05 0.05861101 0.010376161 0.0030482106
000140 c3 e1 8a 3d 62 b8 cf 3c 00 00 00 00 49 99 d8 3d
       0.06781342 0.025356475 0.0 0.10576112
000150 9a 51 c2 3c ed 05 bc bb 3a 0a 88 3c 7f b6 12 3d
       0.023720551 -0.005738011 0.016606439 0.035818573
000160 23 eb a2 3c 26 22 00 3d 6e b7 11 3d bd ef bc 3c
       0.019887513 0.031282566 0.035575323 0.023063535
000170 3e 62 4c 3d 8e fc 55 3d c8 76 3e bc 91 71 6e 3d
       0.04989838 0.052242808 -0.011624999 0.058213774
000180 fe e4 bd 3c 4a 8e 20 bd de a3 4f 3d 61 de 73 3c
       0.023180481 -0.039198197 0.050693385 0.014884562
000190 b2 4e 1a 3d 00 00 00 00 9f 50 88 3d 0d da f8 bb
       0.037672706 0.0 0.06656002 -0.007594353
0001a0 6b 1d 8b 3d 89 85 5e 3d c1 50 99 3d 0b d1 96 3c
       0.067927204 0.054326568 0.07486106 0.018410226
0001b0 ec bf 86 3d 66 94 fb 3b 51 11 22 3d ce ea d3 3c
       0.06579575 0.0076776026 0.039567295 0.0258688
0001c0 9a 66 8e bc 8e e3 0d bc af 88 45 bc 02 42 f6 3c
       -0.017382909 -0.00866021 -0.012056514 0.030060772
0001d0 8f 59 0b bc 67 78 62 3d 27 a4 28 3d 52 3b 4b 3d
       -0.008505239 0.055290606 0.041172173 0.04961712
0001e0 31 40 d9 3c 5d ee a1 3d 10 41 10 3c 7e 3a 04 bd
       0.026519867 0.07906792 0.008804575 -0.032282345
0001f0 20 24 b2 3d 59 9b 7f 3c fa f6 62 3c 38 eb 24 3b
       0.086982965 0.015601003 0.013852829 0.0025164615

conv2.lin.weight f4 [128, 128]
000000 b2 5f c5 3c db 1f 39 3d 21 42 94 3c bd 3e 0f be
       0.024093483 0.045196395 0.018097939 -0.13988777
000010 b7 0f 4f 3d 1b 32 40 be 45 70 7b 3d 2a 2c 86 3e
       0.050552096 -0.18769114 0.061386365 0.2620557
000020 25 9d 05 3e e2 c5 45 3e 62 db 06 3e 3d 0f 8d bd
       0.13048227 0.19313768 0.13169625 -0.06887672
000030 9f 25 6e 3e 1a 48 41 3e dc 99 8b bd 1a 69 2f 3c
       0.23256539 0.18875161 -0.06816456 0.0107062105
000040 de 6c 15 be 79 de 80 3d df b2 fb bc 77 a0 97 bd
       -0.14592311 0.06292433 -0.03072494 -0.07403653
000050 d9 2a b2 bc a0 60 2c 3b 26 23 d4 3d a2 bb 67 be
       -0.021748947 0.002630271 0.103582665 -0.2263017
000060 4a c7 0e 3e 68 fd 73 3e 42 85 df bd e3 6f 34 be
       0.1394321 0.23827136 -0.10914089 -0.17620806
000070 d7 a1 bf bd dc 27 61 bc 26 af 80 3e 53 10 61 3e
       -0.093570404 -0.013742413 0.25133628 0.21978883
000080 2b 2e 0d 3e 87 ab 33 3d 7d 6d 3c be c3 3f 60 3e
       0.13787143 0.043864753 -0.18401141 0.21899323
000090 56 cb 82 bc 86 a6 0f 3d a0 25 6a 3e bc e0 03 be
       -0.015966099 0.03507092 0.22865915 -0.12878698
0000a0 22 65 ec bd fe a5 1c be 4f de 45 be fe 44 49 3d
       -0.11542727 -0.15297696 -0.19323085 0.04913806
0000b0 da 8b f3 bd 9e a9 dc 3d 8c 1d a9 3d 79 21 0e 3e
       -0.11891909 0.107745394 0.08257589 0.13879956
0000c0 70 79 6b 3e 6e 10 b4 bd 77 18 0a be 49 1e 87 3e
       0.22995543 -0.08792196 -0.13485895 0.26390293
0000d0 a7 ca 0d 3e 5e 00 1d 3e 56 be 62 bd d4 ce 34 3d
       0.13846837 0.15332171 -0.0553573 0.04414256
0000e0 d2 a4 9c bd d0 de 5d bd bb 8f 22 bc 1f 04 92 bc
       -0.076486245 -0.05416757 -0.009921963 -0.01782423
0000f0 71 45 91 3e 6d c9 36 3e 9f 5e e5 3c aa db 8b bd
       0.28373292 0.17850275 0.02799922 -0.06829007
000100 af 04 e0 bd 27 2d b0 bd d7 bc d9 3d 66 d7 1b be
       -0.10938393 -0.08602362 0.106317215 -0.15218887
000110 74 ff 08 bc 8e 01 4c 3e ec 71 5e bc 1d 1c 0c be
       -0.008361686 0.19922468 -0.013576966 -0.136826
000120 0c e8 00 3e aa aa e8 3d 4f d6 de 3d 73 99 9f bd
       0.12588519 0.113606766 0.1088072 -0.0779294
000130 21 c9 8c 3d d3 8c 98 be a2 f4 82 bd db fd 1e be
       0.068743 -0.2979494 -0.06394316 -0.15526526
000140 c7 09 78 3e fc d1 84 bd b2 7e 70 3e f1 5a 92 3d
       0.2422248 -0.06485364 0.2348583 0.07146252
000150 c1 e8 8a be 90 8a b7 bd 2b 60 d5 bd 31 7a c3 bd
       -0.27130702 -0.089619756 -0.10418733 -0.095447905
000160 d9 f1 45 3e 3f d8 99 bd 3e 92 57 3e 30 fc 57 be
       0.19330539 -0.07511949 0.2105188 -0.21092296
000170 f6 fb 0c be 21 95 1e 3e 6a 84 fa bd 19 76 7f bd
       -0.1376799 0.15486576 -0.12232287 -0.062368486
000180 23 1a 32 3c 9b 1a a8 3d 4c a9 b1 b9 d8 9b 4b 3e
       0.010870489 0.082081996 -0.00033886207 0.19883668
000190 4b e5 22 3e 6f 77 36 3e ba 0e 98 3e 77 07 c5 3d
       0.15907781 0.17818998 0.29698735 0.096205644
0001a0 9c 28 3e 3e da e2 41 3b 01 4a bc bd 1c 49 42 3e
       0.18570179 0.0029584677 -0.091938026 0.18973202
0001b0 31 1d 56 bd e8 8a 50 bc 87 39 0f 3e 2e 18 07 bd
       -0.052273933 -0.01272843 0.13986789 -0.032982044
0001c0 3a f8 35 3d e0 75 5a 3d 7f 39 19 bd 95 a6 11 3e
       0.04442618 0.05333507 -0.03740835 0.14223702
0001d0 16 cb 36 3e b9 52 14 be 87 1f ec bc 12 d3 1f be
       0.17850909 -0.14484681 -0.028823627 -0.1560786
0001e0 67 6e eb 3d 48 48 3b 3e 9a 20 8d 3c 34 6e 5c 3e
       0.11495667 0.18289292 0.01722746 0.21526414
0001f0 7d 47 3c 3e dc 9c 09 3e 2b 7b 85 3e dc be 0a 3e
       0.18386646 0.13438743 0.26070532 0.1354937
000200 05 41 40 bd 18 72 8b bd 6d bd 39 be ac 27 40 bd
       -0.046937007 -0.06808871 -0.18138666 -0.046912834
000210 c8 16 25 3e 50 79 cf bd 16 cb 1b bb e0 1a 12 bc
       0.16121972 -0.101305604 -0.0023772172 -0.00891754
000220 a9 39 e4 3d 53 91 42 3e 23 27 c7 3d 1b c3 09 bd
       0.1114381 0.1900075 0.097242616 -0.033633333
000230 0a 90 ca 3d ac c1 86 3b 39 a4 26 bc 52 21 e4 3d
       0.098907545 0.004112443 -0.01017099 0.11139168
000240 4a 54 0a bd c8 ff d4 3d fc f4 08 be 35 2c 67 3e
       -0.03377179 0.10400349 -0.13374704 0.22575457
000250 ec 16 d1 3d 34 23 1c be db 31 14 be 18 c5 ef 3d
       0.1020945 -0.15247804 -0.14472143 0.117075145
000260 bf ca 25 3e a3 5e 62 3b e8 40 d3 3c 11 a0 08 3e
       0.16190623 0.003454127 0.025787786 0.1334231
000270 51 be 15 3e 5b 79 85 3e 7f 0b 18 3d 88 98 c5 bc
       0.14623381 0.2606915 0.03712034 -0.024120584
000280 e9 dd 39 3d 6f af ba bd 68 19 7d bd ad a7 9d 3c
       0.045377646 -0.091154926 -0.061791807 0.019244993
000290 2f 00 b2 bd dc bc 20 3e 73 c9 c9 3d 82 07 c8 3d
       -0.08691441 0.15697044 0.098528765 0.09767057
0002a0 87 3e 22 3e f0 3c df bd e8 2b 28 3e 30 e7 1c 3c
       0.15844165 -0.10900295 0.16422999 0.009576604
0002b0 dc d3 70 3d 0d d6 17 3d e3 09 1c be 01 6f ac 3c
       0.058795795 0.03706937 -0.15238146 0.021049025
0002c0 33 50 5d 3e 3f 47 19 be 4b 0b 06 3e d7 6c 31 be
       0.21612625 -0.14968584 0.13090245 -0.17326675
0002d0 2a 86 01 bd fc aa 20 3d 17 d8 1e 3d ff aa 20 3e
       -0.03162209 0.039225563 0.038780298 0.1569023
0002e0 01 5d 39 3e 84 09 4f 3d 3d 96 a8 3d c9 1e 32 3d
       0.18101884 0.050546184 0.08231781 0.04348639
0002f0 bb b0 86 bd 83 32 1e be 7f 82 dd bc 28 e9 cf 3c
       -0.065766774 -0.15448956 -0.027039764 0.025379732
000300 28 bb c1 3d 2c 36 32 3d 5c 91 fc 3d 70 ad 32 be
       0.09459525 0.043508694 0.123324126 -0.17448974
000310 5e f2 94 bd 73 a9 a5 3d 3f de 88 3c c6 3a 16 bd
       -0.0727279 0.080889605 0.016707538 -0.036677144
000320 d4 e9 3a bd 73 92 c3 bc c8 dd 92 3d d5 ac f4 3d
       -0.045633152 -0.023873543 0.07171208 0.119470276
000330 d7 b4 4f 3e 51 da 5f 3b 64 49 08 bd a9 3d 23 3d
       0.20283829 0.0034157226 -0.033273116 0.039853726
000340 34 6e 98 bd 7f d2 0c 3e 57 d9 2d 3e 9e 1c df bd
       -0.074428946 0.13752173 0.1697744 -0.1089413
000350 de f7 69 3e cc 66 a2 3d 4a 8e df bc 4b 3e 24 3c
       0.2284846 0.07929763 -0.027289528 0.010024617
000360 53 2a fa 3c a5 11 77 3c 97 c9 25 3e 0e 73 fc bd
       0.03053776 0.01507989 0.16190182 -0.123266324
000370 b0 e9 4d be 31 66 8e 3d ce 28 34 3c e1 1b 97 3d
       -0.20108676 0.06953085 0.010996057 0.07378364
000380 85 ba ff 3c df a4 65 3e 36 bc 42 3e 1f 68 81 bd
       0.03121687 0.22426175 0.1901711 -0.06318688
000390 d4 52 49 3e 63 b9 1d bd ea 14 10 be b2 4f 28 3e
       0.19660503 -0.038506877 -0.14070478 0.16436651
0003a0 ed a3 bb 3d f6 7e 8e 3d 0b 51 29 3d d2 a5 86 3c
       0.09162126 0.069578096 0.041337054 0.016436491
0003b0 e3 91 a7 3b bc 18 02 bd e4 9b 1d bd f6 be bc bd
       0.0051138266 -0.03176187 -0.038478747 -0.092161104
0003c0 96 59 77 bd 62 d7 8d bd f4 ca c8 3d 3f eb b3 3c
       -0.06038817 -0.06925847 0.09804335 0.02196276
0003d0 2a be 25 be 4b bd a7 bd fa dc 26 3e 4f d5 25 be
       -0.16185823 -0.08190402 0.16295233 -0.16194652
0003e0 e8 82 44 3d 0e fc 2f be 23 ba fc bd 36 30 1b bd
       0.047976404 -0.17185995 -0.1234019 -0.037887774
0003f0 aa ae 88 3d a8 87 a4 3d 64 0d a0 bd 96 d8 9d bc
       0.066739395 0.08033687 -0.07815054 -0.019268315

output_layer.weight f4 [466, 128]
000000 ec e9 86 3b 2c 3c 03 be f7 f0 3f 3d 61 3b 68 bd
       0.004117241 -0.12815922 0.04686066 -0.056697253
000010 8c 0b a4 bd 15 97 a0 bd 5e 14 cc bd c6 d0 c7 bd
       -0.08010015 -0.078413166 -0.09964822 -0.09756617
000020 ff d8 76 bc 64 ef 03 be b6 fe d3 bd e5 34 cb 3c
       -0.015066384 -0.12884289 -0.10351317 0.024805496
000030 ab 55 2c bc 03 cc 33 bb 80 d1 02 be 3c c6 70 3c
       -0.010518472 -0.0027434833 -0.1277523 0.0146957
000040 da 2b 39 bd 58 62 8e bd 4a bb 18 be 3d 30 87 bd
       -0.045207836 -0.06952351 -0.14915195 -0.066009976
000050 8b 35 53 bd 11 e0 47 bd ef 21 87 bd 90 c9 a0 bd
       -0.051564734 -0.04879767 -0.06598269 -0.07850945
000060 88 5f 2a 3c 0d d6 17 bd be 7b 55 bd 58 11 a2 b8
       0.010398753 -0.03706937 -0.052119963 -7.7279925e-05
000070 2c 31 4a bc a5 8b 61 3c fd c7 09 3c 0f e3 ca bd
       -0.012340825 0.013766204 0.008409497 -0.09906589
000080 51 58 bf bd 3d fa cb bd d2 3b b4 bd 87 99 27 be
       -0.09343017 -0.099598385 -0.08800472 -0.1636716
000090 2a 86 a9 bc 02 b4 e5 bd fe b7 7e 3b a1 37 bf bd
       -0.020693857 -0.112159744 0.0038866992 -0.09336782
0000a0 66 a0 59 bd 95 99 12 bd 33 8b 6c 3d 2d bb aa bc
       -0.053131483 -0.035791 0.05774994 -0.020841205
0000b0 47 a6 29 bd 49 63 db ba 11 61 95 bd ae e7 56 3d
       -0.04141834 -0.0016737963 -0.072939046 0.05246704
0000c0 84 2d 91 3d 10 76 67 bd 4b 6c af bd c7 4e a7 3c
       0.070887595 -0.056509078 -0.08565577 0.020423306
0000d0 54 1a e4 bc 63 e2 3a bd 0f da 96 3b 9e 2e 9e bc
       -0.027844585 -0.045626055 0.0046036313 -0.019309338
0000e0 b9 b3 92 bd 85 cd a3 bd fe d2 71 bd b6 e0 4a 3d
       -0.071631856 -0.07998184 -0.05903911 0.049530707
0000f0 f2 a5 44 bd b1 74 7f bd 9e 10 e5 bd 66 e1 0a be
       -0.04800982 -0.062367145 -0.1118481 -0.13562545
000100 fb 24 40 bd cd ae 07 bd d9 e4 1f 3c 73 45 ea bd
       -0.046910267 -0.033125687 0.009759151 -0.11439028
000110 09 37 d2 bd 8d 95 ec bd 51 4e c2 bd 96 96 9d 3c
       -0.102644034 -0.11551962 -0.09487594 0.019236844
000120 77 ec 33 3d f5 1f 84 bc 28 c5 51 3d 08 dc e6 bd
       0.043926682 -0.01612852 0.051213413 -0.112724364
000130 c4 81 ee bd 8f 42 c5 bd 1b 6c ba 3c 9e 62 95 3c
       -0.116458446 -0.09631836 0.022756627 0.0182355
000140 ed 45 16 be 53 a0 f8 bd bf b5 a0 bc 36 dd b5 bc
       -0.14675112 -0.121399544 -0.019617913 -0.022200208
000150 b7 76 5e 3b da 66 f6 bc b6 10 c8 bd 83 f3 f0 bd
       0.0033945271 -0.03007834 -0.09768812 -0.11765196
000160 32 45 9e bc 74 3f 65 3d f2 4a b0 bd 0f 88 b6 bd
       -0.019320104 0.055968717 -0.08608045 -0.0891267
000170 7b 99 f0 bd 9e 54 47 3d f9 d5 d9 bb 51 53 87 bd
       -0.11748024 0.04866468 -0.006647822 -0.06607688
000180 67 1f eb bd c3 b6 c5 3c 52 39 76 3d ed 8a 87 bd
       -0.11480599 0.024135 0.06011326 -0.06618295
000190 15 48 63 3d 08 7a 61 3d cb 0c 0e be b5 dd 10 bd
       0.055488665 0.05504802 -0.13872068 -0.035367686
0001a0 eb 8b 09 be 11 34 27 bc 83 06 24 be 37 92 07 3d
       -0.1343228 -0.010205285 -0.16018109 0.033098426
0001b0 d1 7f f2 bd 64 58 cd 3b 6c 8d cc bd 45 65 84 bd
       -0.11840785 0.0062666405 -0.099879116 -0.06464628
0001c0 fd 33 2c bd 0c 15 18 bd 0f 15 38 bd 5b a2 f6 bc
       -0.042041767 -0.037129447 -0.044941958 -0.030106714
0001d0 f5 8c 55 bc 12 b8 b9 3c a2 b7 a6 bd 33 33 fe bd
       -0.013034095 0.02267078 -0.08140494 -0.12412109
0001e0 83 46 4f 3c bd b7 24 bd a0 37 de 3b 3c ae 82 bd
       0.012651089 -0.04021429 0.0067815334 -0.06380889
0001f0 f9 bd 1d be 07 8b d6 bc cc 05 c3 bd 3d f6 94 bd
       -0.154045 -0.02618934 -0.0952259 -0.07273529
000200 8b d0 b3 3d 22 43 2f bd c1 1e e1 bc 87 c2 72 3d
       0.08780011 -0.042788632 -0.027480485 0.059267547
000210 85 25 7a 3d 11 72 d6 bd 46 83 ca ba d6 df 1c 3d
       0.061070938 -0.10470975 -0.00154505 0.038299404
000220 12 9f 35 be d7 d5 7a 3d 14 b7 26 be 0d be 97 3c
       -0.17736462 0.06123909 -0.16280776 0.01852324
000230 c2 3b 62 be 54 18 3a bf 7c cc c1 bd 5c e7 e5 bc
       -0.22093108 -0.7269337 -0.094628304 -0.028064422
000240 ba f0 54 be f3 24 23 bc 23 54 f9 bd b3 37 21 bd
       -0.20794955 -0.00995754 -0.12174251 -0.03935976
000250 67 b6 93 bd 31 fd 88 bd 32 73 79 3d ff 95 9f be
       -0.07212525 -0.066889174 0.060900874 -0.31169125
000260 f3 1a b2 bc f2 d0 31 bd c0 15 e8 bd 20 4f d6 bc
       -0.021741366 -0.043412156 -0.113322735 -0.026160777
000270 94 e7 46 be 63 b3 a4 bc b0 bc 83 bd 16 f6 ef bd
       -0.19424278 -0.02010507 -0.06432474 -0.11716859
000280 0c eb 8d 3d bb ba d3 bc f6 60 bb bd 82 ae 3f 3d
       0.06929597 -0.025845876 -0.09149353 0.046797283
000290 fe c9 15 3d 87 9b d0 bd 06 bf 38 bf 47 54 28 3c
       0.036569588 -0.101859145 -0.7216648 0.010274
0002a0 33 9e e6 3d b1 81 2e bd 89 4a 30 bd 19 3b 9b 3c
       0.11260643 -0.042604152 -0.043039832 0.018949078
0002b0 af 9c 05 be 46 c9 9a bd 2d b2 70 bd f4 25 1c bd
       -0.13048051 -0.07557921 -0.05876367 -0.038122132
0002c0 33 1e b2 3d 69 7d 13 3d 2b d5 0e bd 1d b9 90 bd
       0.08697166 0.036008272 -0.03487126 -0.070665576
0002d0 d0 8c a9 bd f8 61 d0 bd 2b be aa 3c 82 32 c9 bd
       -0.08278811 -0.10174936 0.020842632 -0.09824087
0002e0 cd e3 cd 3c f0 fb 85 bc 08 de e6 3c 08 9c 00 3d
       0.025133038 -0.016355485 0.028182045 0.031398803
0002f0 eb e5 1c be dd 77 59 bf cf ad 81 3d 2c fb 97 bd
       -0.15322082 -0.8494852 0.063319795 -0.07420954
000300 6d 8c 20 bc 97 11 a1 39 4b 28 46 bd 9a 72 19 be
       -0.009799105 0.00030721418 -0.04837827 -0.14985123
000310 e9 5a f0 3a be 89 24 3c 94 ae 96 bc 9e a7 dd bc
       0.001833764 0.010042606 -0.018393792 -0.027057465
000320 0b dc 87 bc e2 44 57 3b 54 61 61 3d 54 33 90 bd
       -0.016584417 0.0032847454 0.05502446 -0.0704104
000330 f4 c0 82 bd f2 4a a3 3d 4c 70 1b bd 77 23 94 3c
       -0.06384459 0.07973279 -0.03794889 0.018083317
000340 7a cc db 3c 4a ae 22 bd 56 4e 65 bd 0b 64 a7 bd
       0.0268309 -0.039716996 -0.05598291 -0.081733786
000350 50 5f f6 bd 2b fe 96 3d ab ec 3f bd 94 97 46 bc
       -0.12029898 0.073726974 -0.046856564 -0.0121211
000360 73 70 49 3d 58 75 96 bd 17 2d 82 3c 52 fe 2f 3d
       0.049179506 -0.073466 0.015890641 0.042967148
000370 01 2f 47 bd 8e 5b f5 bd 1a ab 9b bc 6d bd 54 bd
       -0.04862881 -0.11980353 -0.019002486 -0.051938463
000380 ef 65 c2 bd d3 d6 80 3d 31 f1 bd bd d6 a4 62 3d
       -0.094920985 0.062909745 -0.09274519 0.05533298
000390 16 8a 29 3e 14 6e 2c 3d 15 17 c4 bd 7d 4c 68 bd
       0.16556582 0.042097166 -0.09574715 -0.05671357
0003a0 c3 8d 29 3d 2c ca be bd e0 c1 4b be 5a c6 95 bd
       0.04139496 -0.09315905 -0.19898176 -0.07313223
0003b0 7e 2a ef bc 58 2d 60 3d ec b0 d8 3c ad 74 a4 bd
       -0.029195067 0.054730743 0.02645155 -0.08030067
0003c0 ff 6b 28 3d 7c 40 11 bd 1f f2 46 bc f3 4e 2b 3d
       0.041118618 -0.035461888 -0.012142687 0.04182334
0003d0 c2 4c 08 be 86 45 c4 3a df 8f 06 be a7 87 66 3a
       -0.13310531 0.0014974333 -0.1314082 0.00087940175
0003e0 eb f1 99 3d 0e 49 83 3d 3f ab 3e 3d 29 ba 5a 3d
       0.07516845 0.064104185 0.04655003 0.053400192
0003f0 d9 58 80 bd 35 88 50 bd b7 a3 19 3d e1 25 89 3d
       -0.06266946 -0.050911147 0.037509646 0.06696678

output_layer.bias f4 [466]
000000 58 6e a0 bd 1c 87 0d bc 8a d2 1a 3d 6e b2 29 3d
       -0.078335464 -0.00863817 0.037798442 0.04142993
000010 ef 18 dd bc 71 26 ae bd fe 0a 67 bd a1 99 ae bd
       -0.026989428 -0.08503426 -0.056406967 -0.08525396
000020 cd 5b b6 bd c0 4f 15 bd 54 8d 7e 3d d1 48 d9 3c
       -0.08904228 -0.03645301 0.0621465 0.02652398
000030 95 b0 d1 bd 69 49 8f bd be d5 3d 3d f0 b7 bb bd
       -0.102387585 -0.06996424 0.04634642 -0.09165943
000040 5b db d0 3c 6b 13 b9 bd 74 66 c1 bb 14 b9 3e bc
       0.025495222 -0.09036907 -0.005902106 -0.011640806
000050 24 62 2c 39 a5 23 f0 3c 22 3d ba 3b 7e fb f6 bd
       0.00016439758 0.029313872 0.005683557 -0.12059687
000060 9f 5f 8b 3d bd c9 83 bc cd e6 09 bb dd 50 2f 3d
       0.06805348 -0.016087407 -0.002104211 0.042801727
000070 56 29 b4 bc e4 ef 9e 3c d0 76 fe bc 5b da 41 3d
       -0.021992367 0.019401498 -0.031062514 0.04732738
000080 a9 49 9f bd b4 b8 b9 bd 6f a1 35 bc 64 87 bf 3c
       -0.077777214 -0.090684325 -0.011085852 0.023379989
000090 da 76 3f bd 19 e1 bc bd 37 d6 7a bd ca 29 34 bd
       -0.046744205 -0.092226215 -0.061239447 -0.043985166
0000a0 26 c3 d5 bd 8f e3 7b bd aa fb 40 3d b8 4f cc bc
       -0.10437612 -0.061496314 0.047115006 -0.024940357
0000b0 81 09 3b bc 2e 7a d7 bd 3a ca 72 bd c9 46 ca 3b
       -0.01141584 -0.10521351 -0.05927489 0.006172989
0000c0 6b 96 54 bc e4 0a ba bd 70 1f 33 bd f9 cb 27 bd
       -0.012975316 -0.090841085 -0.043731153 -0.040966008
0000d0 3b c6 7e bc a5 ee b3 bd af 98 70 bd 41 f3 21 bd
       -0.0155501915 -0.08785752 -0.05873936 -0.039538626
0000e0 51 5e bf bd 2f 61 86 3d 54 48 54 bd 60 ed 97 bc
       -0.09344161 0.06561505 -0.05182679 -0.018545806
0000f0 34 2d ae 3d 05 a0 04 3c 0f f2 e1 bd d7 12 b7 bd
       0.085047156 0.008094792 -0.11032497 -0.0893914
000100 ba 8c 34 bc dd 2f ea 3c 69 95 fd 3c ed 27 ad 3b
       -0.01101988 0.028587276 0.030955033 0.0052843005
000110 2b 25 a0 bd 17 6e 5c bc 0d d0 d9 bd 04 94 84 bc
       -0.07819589 -0.013453982 -0.10635386 -0.01618386
000120 f2 e9 56 3d e8 0f d7 bd d9 32 d7 bd fd 8b e0 bc
       0.0524692 -0.10501081 -0.10507745 -0.027410502
000130 1c 4d 6c bd 99 52 a8 3d 50 ec 22 bd 50 f7 7b 3b
       -0.057690725 0.08218879 -0.039776146 0.003844697
000140 2f 7c c4 3d 6c 8d 8e 3c 94 66 cc bd 8b 84 52 bc
       0.09593999 0.01740142 -0.09980503 -0.0128489835
000150 77 b9 90 bd 4e 1e 80 3d ec 40 41 bc 41 db c6 bd
       -0.070666246 0.0625578 -0.011795264 -0.09709788
000160 cd ef 99 bd 7b 94 96 bc c9 4a 94 bd 84 fc ea bd
       -0.075164415 -0.018381348 -0.07240827 -0.11473945
000170 c6 52 cb 3c 92 b3 57 bd 86 dd 8f bd 4d 0e d6 bd
       0.024819743 -0.052661486 -0.07024674 -0.104519464
000180 7f 49 85 3d d2 27 a3 bd 68 90 ad 3d e8 31 28 3d
       0.06508159 -0.079665795 0.08474809 0.04106322
000190 3f fb 5d bd 99 f0 a1 bd 32 e6 b0 bd 5b 00 72 3d
       -0.054194685 -0.079072185 -0.08637656 0.05908237
0001a0 21 56 e2 bb 99 52 e3 3c a6 c2 ec 3b 68 b6 1b 3d
       -0.00690724 0.027749347 0.0072253523 0.038015753
0001b0 b7 22 bf bd c3 4a 5d 3d ff 27 ad bd b7 e2 1f bd
       -0.09332793 0.054026376 -0.08454894 -0.03903457
0001c0 b5 d1 a3 3c 8b 6e 3a 3d 76 64 f1 3c 6a 94 98 3b
       0.019997457 0.04551558 0.029466849 0.004656364
0001d0 ac 6e 38 bb cd 23 b3 bc 61 3d ba 3d 60 46 89 3d
       -0.0028142137 -0.021867657 0.09093738 0.06702876
0001e0 b7 a6 5c 3c 3e f3 84 bd 49 49 87 3d e3 e6 c2 bd
       0.013467482 -0.06491707 0.06605775 -0.095166944
0001f0 14 36 d3 3c 46 8f aa bc 0d c1 5a bd 12 0f 95 bd
       0.025782622 -0.020820271 -0.053406764 -0.07278265
000200 c4 47 53 bc 7e e1 e4 bc 61 90 d3 bb 37 66 ec 3c
       -0.012895528 -0.027939554 -0.0064564203 0.028857334
000210 2e 06 93 bd a3 bd 7c 3d 80 d6 ba bd 11 53 9a bd
       -0.07178913 0.06170429 -0.09122944 -0.07535375
000220 36 a8 4d 3d a8 c3 48 bb e6 e6 90 bd d6 4b 40 ba
       0.050209247 -0.0030634198 -0.070752904 -0.0007335519
000230 58 3c 8c 3d 44 0b c7 3d ae 92 d0 bc 08 ad 2c bd
       0.06847447 0.097189456 -0.025460567 -0.042157203
000240 db 05 6b 3d de d6 54 bd c0 3d 68 3d 22 18 d9 3c
       0.05737863 -0.051962726 0.056699514 0.026500765
000250 0a 0a 7c 3d c1 4c 69 3b f8 5e 9b bc 26 03 03 3d
       0.06153301 0.0035598727 -0.018966183 0.031985424
000260 9d e6 8e bc 72 15 96 bd f5 ff 98 bd 9a 85 92 bd
       -0.01744395 -0.07328309 -0.07470695 -0.07154389
000270 95 a3 4c 3c 80 0c 8e bd 53 34 e9 3b 52 e1 34 bc
       0.012490173 -0.06935978 0.0071168332 -0.011040049
000280 e6 7a 82 bd 9f 23 8d 3d 9e 80 0d 3d 99 4c e7 3d
       -0.06371097 0.0689156 0.034546487 0.11293907
000290 b8 7d b8 bd 1c e9 a7 bd 4a 98 35 3b 07 84 0f 3c
       -0.09008354 -0.08198759 0.002770918 0.008759505
0002a0 da ff 68 3d ee 2e d8 bd a5 ad 15 bd 95 f5 86 bc
       0.056884624 -0.10555826 -0.036542553 -0.016474525
0002b0 4a 36 e4 bd 18 32 86 3c 81 04 a3 bc 19 dc 24 bc
       -0.11143167 0.016381308 -0.019899609 -0.010062241
0002c0 38 6a 6a 3d 6b be f8 bc 38 cb b1 3d d1 a6 1d bd
       0.057230204 -0.030364236 0.08681339 -0.038489167
0002d0 02 4a 97 bd 0e 48 84 3d e7 fc 3e bd 6c 1a 5c 3c
       -0.07387163 0.06459056 -0.046627905 0.013434034
0002e0 c3 35 e1 3c 0d cb 48 bd a9 53 2a bc 5b 2f a7 bd
       0.027491456 -0.04902177 -0.010395923 -0.08163329
0002f0 1b d9 d2 bd 35 14 85 3d fc 85 e3 bd d9 ec d0 bd
       -0.10295316 0.06497995 -0.1110954 -0.10201425
000300 b7 12 98 3d 25 60 0c bd a0 69 29 bb e1 53 70 3d
       0.074254446 -0.034271378 -0.002585031 0.058673743
000310 90 d0 a4 3d 31 77 34 bc 86 9c 9e bd d6 76 d5 bc
       0.08047593 -0.011014746 -0.07744698 -0.026057642
000320 8e d1 8a 3d 3f 0d 34 bd 94 75 af bc 7c 2a d6 bd
       0.06778251 -0.043957945 -0.02141837 -0.10457322
000330 ae e2 6b bd 38 28 86 bd d0 36 9d 3c 95 7a 1b bd
       -0.057589225 -0.0655064 0.019191176 -0.0379587
000340 75 32 63 3d a0 8e 4e 3d 26 60 ca bd b8 88 31 bd
       0.05546804 0.050428987 -0.0988162 -0.043343276
000350 8d 2d 9a 3c af f7 60 3d 51 e2 0b bd b2 05 20 bd
       0.018820548 0.05492371 -0.03415138 -0.03906793
000360 be ae 92 bc cf 87 89 bd 94 d2 44 bd a1 64 a4 bd
       -0.01790559 -0.067153566 -0.048052385 -0.08027006
000370 2c 55 57 3d 91 68 45 3d 14 b9 eb bc bd 87 28 3c
       0.05257146 0.048195425 -0.028774776 0.010286269
000380 ed fb 78 3d c4 19 0f bd 40 e2 2a 3c c1 c7 96 bd
       0.06078713 -0.03493668 0.010429919 -0.07362319
000390 ad 33 b9 bd 0b 75 12 3d b2 89 c6 3c 9c 40 cd bd
       -0.090430595 0.035756152 0.02423558 -0.10022089
0003a0 af a7 89 3d c3 51 a5 bc 43 3e 77 3c a6 a6 09 bb
       0.06721436 -0.020180589 0.015090528 -0.0021003871
0003b0 5e 09 38 3d 03 e7 31 bd 95 07 65 3d d0 91 44 bd
       0.04493081 -0.0434332 0.055915434 -0.04799062
0003c0 6e a5 a1 bb dd f2 47 bd c4 8f be 3c f9 23 a4 bd
       -0.004933051 -0.048815597 0.023261912 -0.08014674
0003d0 ee 92 b1 bd 6e 17 82 bd e1 40 65 bd e4 5a 37 bd
       -0.08670603 -0.06352125 -0.055970076 -0.044764414
0003e0 ed 2f ae 3c 03 f8 ed bd 2b 70 e2 bb 36 0f 7b 3d
       0.021263087 -0.1161957 -0.006910344 0.061293803
0003f0 aa fc d5 bc 7b ae 4a 3d 01 cd 69 3d 9d 29 05 3d
       -0.026121456 0.049482804 0.057080273 0.03251039
